…
        min_scale: 0.3
        max_scale: 1
        min_aspect_ratio: 0.5
        max_aspect_ratio: 2
      }
      sample_constraint {
        min_jaccard_overlap: 0.9
      }
      max_sample: 1
      max_trials: 50
    }
    batch_sampler {
      sampler {
        min_scale: 0.3
        max_scale: 1
        min_aspect_ratio: 0.5
        max_aspect_ratio: 2
      }
      sample_constraint {
        max_jaccard_overlap: 1
      }
      max_sample: 1
      max_trials: 50
    }
    label_map_file: "/home/perception/KITTI_SSD//data/KITTI/labelmap_KITTI.prototxt"
  }
}
layer {
  name: "conv1_1"
  type: "Convolution"
  bottom: "data"
  top: "conv1_1"
  param {
    lr_mult: 0
    decay_mult: 0
  }
  param {
    lr_mult: 0
    decay_mult: 0
  }
  convolution_param {
    num_output: 64
    pad: 1
    kernel_size: 3
    weight_filler {
      type: "xavier"
    }
    bias_filler {
      type: "constant"
      value: 0
    }
  }
}
layer {
  name: "relu1_1"
  type: "ReLU"
  bottom: "conv1_1"
  top: "conv1_1"
}
layer {
  name: "conv1_2"
  type: "Convolution"
  bottom: "conv1_1"
  top: "conv1_2"
  param {
    lr_mult: 0
    decay_mult: 0
  }
  param {
    lr_mult: 0
    decay_mult: 0
  }
  convolution_param {
    num_output: 64
    pad: 1
    kernel_size: 3
    weight_filler {
      type: "xavier"
    }
    bias_filler {
      type: "constant"
      value: 0
    }
  }
}
layer {
  name: "relu1_2"
  type: "ReLU"
  bottom: "conv1_2"
  top: "conv1_2"
}
layer {
  name: "pool1"
  type: "Pooling"
  bottom: "conv1_2"
  top: "pool1"
  pooling_param {
    pool: MAX
    kernel_size: 2
    stride: 2
  }
}
layer {
  name: "conv2_1"
  type: "Convolution"
  bottom: "pool1"
  top: "conv2_1"
  param {
    lr_mult: 0
    decay_mult: 0
  }
  param {
    lr_mult: 0
    decay_mult: 0
  }
  convolution_param {
    num_output: 128
    pad: 1
    kernel_size: 3
    weight_filler {
      type: "xavier"
    }
    bias_filler {
      type: "constant"
      value: 0
    }
  }
}
layer {
  name: "relu2_1"
  type: "ReLU"
  bottom: "conv2_1"
  top: "conv2_1"
}
layer {
  name: "conv2_2"
  type: "Convolution"
  bottom: "conv2_1"
  top: "conv2_2"
  param {
    lr_mult: 0
    decay_mult: 0
  }
  param {
    lr_mult: 0
    decay_mult: 0
  }
  convolution_param {
    num_output: 128
    pad: 1
    kernel_size: 3
    weight_filler {
      type: "xavier"
    }
    bias_filler {
      type: "constant"
      value: 0
    }
  }
}
layer {
  name: "relu2_2"
  type: "ReLU"
  bottom: "conv2_2"
  top: "conv2_2"
}
layer {
  name: "pool2"
  type: "Pooling"
  bottom: "conv2_2"
  top: "pool2"
  pooling_param {
    pool: MAX
    kernel_size: 2
    stride: 2
  }
}
layer {
  name: "conv3_1"
  type: "Convolution"
  bottom: "pool2"
  top: "conv3_1"
  param {
    lr_mult: 1
    decay_mult: 1
  }
  param {
    lr_mult: 2
    decay_mult: 0
  }
  convolution_param {
    num_output: 256
    pad: 1
    kernel_size: 3
    weight_filler {
      type: "xavier"
    }
    bias_filler {
      type: "constant"
      value: 0
    }
  }
}
layer {
  name: "relu3_1"
  type: "ReLU"
  bottom: "conv3_1"
  top: "conv3_1"
}
layer {
  name: "conv3_2"
  type: "Convolution"
  bottom: "conv3_1"
  top: "conv3_2"
  param {
    lr_mult: 1
    decay_mult: 1
  }
  param {
    lr_mult: 2
    decay_mult: 0
  }
  convolution_param {
    num_output: 256
    pad: 1
    kernel_size: 3
    weight_filler {
      type: "xavier"
    }
    bias_filler {
      type: "constant"
      value: 0
    }
  }
}
layer {
  name: "relu3_2"
  type: "ReLU"
  bottom: "conv3_2"
  top: "conv3_2"
}
layer {
  name: "conv3_3"
  type: "Convolution"
  bottom: "conv3_2"
  top: "conv3_3"
  param {
    lr_mult: 1
    decay_mult: 1
  }
  param {
    lr_mult: 2
    decay_mult: 0
  }
  convolution_param {
    num_output: 256
    pad: 1
    kernel_size: 3
    weight_filler {
      type: "xavier"
    }
    bias_filler {
      type: "constant"
      value: 0
    }
  }
}
layer {
  name: "relu3_3"
  type: "ReLU"
  bottom: "conv3_3"
  top: "conv3_3"
}
layer {
  name: "pool3"
  type: "Pooling"
  bottom: "conv3_3"
  top: "pool3"
  pooling_param {
    pool: MAX
    kernel_size: 2
    stride: 2
  }
}
layer {
  name: "conv4_1"
  type: "Convolution"
  bottom: "pool3"
  top: "conv4_1"
  param {
    lr_mult: 1
    decay_mult: 1
  }
  param {
    lr_mult: 2
    decay_mult: 0
  }
  convolution_param {
    num_output: 512
    pad: 1
    kernel_size: 3
    weight_filler {
      type: "xavier"
    }
    bias_filler {
      type: "constant"
      value: 0
    }
  }
}
layer {
  name: "relu4_1"
  type: "ReLU"
  bottom: "conv4_1"
  top: "conv4_1"
}
layer {
  name: "conv4_2"
  type: "Convolution"
  bottom: "conv4_1"
  top: "conv4_2"
  param {
    lr_mult: 1
    decay_mult: 1
  }
  param {
    lr_mult: 2
    decay_mult: 0
  }
  convolution_param {
    num_output: 512
    pad: 1
    kernel_size: 3
    weight_filler {
      type: "xavier"
    }
    bias_filler {
      type: "constant"
      value: 0
    }
  }
}
layer {
  name: "relu4_2"
  type: "ReLU"
  bottom: "conv4_2"
  top: "conv4_2"
}
layer {
  name: "conv4_3"
  type: "Convolution"
  bottom: "conv4_2"
  top: "conv4_3"
  param {
    lr_mult: 1
    decay_mult: 1
  }
  param {
    lr_mult: 2
    decay_mult: 0
  }
  convolution_param {
    num_output: 512
    pad: 1
    kernel_size: 3
    weight_filler {
      type: "xavier"
    }
    bias_filler {
      type: "constant"
      value: 0
    }
  }
}
layer {
  name: "relu4_3"
  type: "ReLU"
  bottom: "conv4_3"
  top: "conv4_3"
}
layer {
  name: "pool4"
  type: "Pooling"
  bottom: "conv4_3"
  top: "pool4"
  pooling_param {
    pool: MAX
    kernel_size: 2
    stride: 2
  }
}
layer {
  name: "conv5_1"
  type: "Convolution"
  bottom: "pool4"
  top: "conv5_1"
  param {
    lr_mult: 1
    decay_mult: 1
  }
  param {
    lr_mult: 2
    decay_mult: 0
  }
  convolution_param {
    num_output: 512
    pad: 1
    kernel_size: 3
    weight_filler {
      type: "xavier"
    }
    bias_filler {
      type: "constant"
      value: 0
    }
  }
}
layer {
  name: "relu5_1"
  type: "ReLU"
  bottom: "conv5_1"
  top: "conv5_1"
}
layer {
  name: "conv5_2"
  type: "Convolution"
  bottom: "conv5_1"
  top: "conv5_2"
  param {
    lr_mult: 1
    decay_mult: 1
  }
  param {
    lr_mult: 2
    decay_mult: 0
  }
  convolution_param {
    num_output: 512
    pad: 1
    kernel_size: 3
    weight_filler {
      type: "xavier"
    }
    bias_filler {
      type: "constant"
      value: 0
    }
  }
}
layer {
  name: "relu5_2"
  type: "ReLU"
  bottom: "conv5_2"
  top: "conv5_2"
}
layer {
  name: "conv5_3"
  type: "Convolution"
  bottom: "conv5_2"
  top: "conv5_3"
  param {
    lr_mult: 1
    decay_mult: 1
  }
  param {
    lr_mult: 2
    decay_mult: 0
  }
  convolution_param {
    num_output: 512
    pad: 1
    kernel_size: 3
    weight_filler {
      type: "xavier"
    }
    bias_filler {
      type: "constant"
      value: 0
    }
  }
}
layer {
  name: "relu5_3"
  type: "ReLU"
  bottom: "conv5_3"
  top: "conv5_3"
}
layer {
  name: "pool5"
  type: "Pooling"
  bottom: "conv5_3"
  top: "pool5"
  pooling_param {
    pool: MAX
    kernel_size: 3
    stride: 1
    pad: 1
  }
}
layer {
  name: "fc6"
  type: "Convolution"
  bottom: "pool5"
  top: "fc6"
  param {
    lr_mult: 1
    decay_mult: 1
  }
  param {
    lr_mult: 2
    decay_mult: 0
  }
  convolution_param {
    num_output: 1024
    pad: 6
    kernel_size: 3
    weight_filler {
      type: "xavier"
    }
    bias_filler {
      type: "constant"
      value: 0
    }
    dilation: 6
  }
}
layer {
  name: "relu6"
  type: "ReLU"
  bottom: "fc6"
  top: "fc6"
}
layer {
  name: "fc7"
  type: "Convolution"
  bottom: "fc6"
  top: "fc7"
  param {
    lr_mult: 1
    decay_mult: 1
  }
  param {
    lr_mult: 2
    decay_mult: 0
  }
  convolution_param {
    num_output: 1024
    kernel_size: 1
    weight_filler {
      type: "xavier"
    }
    bias_filler {
      type: "constant"
      value: 0
    }
  }
}
layer {
  name: "relu7"
  type: "ReLU"
  bottom: "fc7"
  top: "fc7"
}
layer {
  name: "conv6_1"
  type: "Convolution"
  bottom: "fc7"
  top: "conv6_1"
  param {
    lr_mult: 1
    decay_mult: 1
  }
  param {
    lr_mult: 2
    decay_mult: 0
  }
  convolution_param {
    num_output: 256
    pad: 0
    kernel_size: 1
    stride: 1
    weight_filler {
      type: "xavier"
    }
    bias_filler {
      type: "constant"
      value: 0
    }
  }
}
layer {
  name: "conv6_1_relu"
  type: "ReLU"
  bottom: "conv6_1"
  top: "conv6_1"
}
layer {
  name: "conv6_2"
  type: "Convolution"
  bottom: "conv6_1"
  top: "conv6_2"
  param {
    lr_mult: 1
    decay_mult: 1
  }
  param {
    lr_mult: 2
    decay_mult: 0
  }
  convolution_param {
    num_output: 512
    pad: 1
    kernel_size: 3
    stride: 2
    weight_filler {
      type: "xavier"
    }
    bias_filler {
      type: "constant"
      value: 0
    }
  }
}
layer {
  name: "conv6_2_relu"
  type: "ReLU"
  bottom: "conv6_2"
  top: "conv6_2"
}
layer {
  name: "conv7_1"
  type: "Convolution"
  bottom: "conv6_2"
  top: "conv7_1"
  param {
    lr_mult: 1
    decay_mult: 1
  }
  param {
    lr_mult: 2
    decay_mult: 0
  }
  convolution_param {
    num_output: 128
    pad: 0
    kernel_size: 1
    stride: 1
    weight_filler {
      type: "xavier"
    }
    bias_filler {
      type: "constant"
      value: 0
    }
  }
}
layer {
  name: "conv7_1_relu"
  type: "ReLU"
  bottom: "conv7_1"
  top: "conv7_1"
}
layer {
  name: "conv7_2"
  type: "Convolution"
  bottom: "conv7_1"
  top: "conv7_2"
  param {
    lr_mult: 1
    decay_mult: 1
  }
  param {
    lr_mult: 2
    decay_mult: 0
  }
  convolution_param {
    num_output: 256
    pad: 1
    kernel_size: 3
    stride: 2
    weight_filler {
      type: "xavier"
    }
    bias_filler {
      type: "constant"
      value: 0
    }
  }
}
layer {
  name: "conv7_2_relu"
  type: "ReLU"
  bottom: "conv7_2"
  top: "conv7_2"
}
layer {
  name: "conv8_1"
  type: "Convolution"
  bottom: "conv7_2"
  top: "conv8_1"
  param {
    lr_mult: 1
    decay_mult: 1
  }
  param {
    lr_mult: 2
    decay_mult: 0
  }
  convolution_param {
    num_output: 128
    pad: 0
    kernel_size: 1
    stride: 1
    weight_filler {
      type: "xavier"
    }
    bias_filler {
      type: "constant"
      value: 0
    }
  }
}
layer {
  name: "conv8_1_relu"
  type: "ReLU"
  bottom: "conv8_1"
  top: "conv8_1"
}
layer {
  name: "conv8_2"
  type: "Convolution"
  bottom: "conv8_1"
  top: "conv8_2"
  param {
    lr_mult: 1
    decay_mult: 1
  }
  param {
    lr_mult: 2
    decay_mult: 0
  }
  convolution_param {
    num_output: 256
    pad: 1
    kernel_size: 3
    stride: 2
    weight_filler {
      type: "xavier"
    }
    bias_filler {
      type: "constant"
      value: 0
    }
  }
}
layer {
  name: "conv8_2_relu"
  type: "ReLU"
  bottom: "conv8_2"
  top: "conv8_2"
}
layer {
  name: "pool6"
  type: "Pooling"
  bottom: "conv8_2"
  top: "pool6"
  pooling_param {
    pool: AVE
    global_pooling: true
  }
}
layer {
  name: "conv4_3_norm"
  type: "Normalize"
  bottom: "conv4_3"
  top: "conv4_3_norm"
  norm_param {
    across_spatial: false
    scale_filler {
      type: "constant"
      value: 20
    }
    channel_shared: false
  }
}
layer {
  name: "conv4_3_norm_mbox_loc"
  type: "Convolution"
  bottom: "conv4_3_norm"
  top: "conv4_3_norm_mbox_loc"
  param {
    lr_mult: 1
    decay_mult: 1
  }
  param {
    lr_mult: 2
    decay_mult: 0
  }
  convolution_param {
    num_output: 12
    pad: 1
    kernel_size: 3
    stride: 1
    weight_filler {
      type: "xavier"
    }
    bias_filler {
      type: "constant"
      value: 0
    }
  }
}
layer {
  name: "conv4_3_norm_mbox_loc_perm"
  type: "Permute"
  bottom: "conv4_3_norm_mbox_loc"
  top: "conv4_3_norm_mbox_loc_perm"
  permute_param {
    order: 0
    order: 2
    order: 3
    order: 1
  }
}
layer {
  name: "conv4_3_norm_mbox_loc_flat"
  type: "Flatten"
  bottom: "conv4_3_norm_mbox_loc_perm"
  top: "conv4_3_norm_mbox_loc_flat"
  flatten_param {
    axis: 1
  }
}
layer {
  name: "conv4_3_norm_mbox_conf"
  type: "Convolution"
  bottom: "conv4_3_norm"
  top: "conv4_3_norm_mbox_conf"
  param {
    lr_mult: 1
    decay_mult: 1
  }
  param {
    lr_mult: 2
    decay_mult: 0
  }
  convolution_param {
    num_output: 12
    pad: 1
    kernel_size: 3
    stride: 1
    weight_filler {
      type: "xavier"
    }
    bias_filler {
      type: "constant"
      value: 0
    }
  }
}
layer {
  name: "conv4_3_norm_mbox_conf_perm"
  type: "Permute"
  bottom: "conv4_3_norm_mbox_conf"
  top: "conv4_3_norm_mbox_conf_perm"
  permute_param {
    order: 0
    order: 2
    order: 3
    order: 1
  }
}
layer {
  name: "conv4_3_norm_mbox_conf_flat"
  type: "Flatten"
  bottom: "conv4_3_norm_mbox_conf_perm"
  top: "conv4_3_norm_mbox_conf_flat"
  flatten_param {
    axis: 1
  }
}
layer {
  name: "conv4_3_norm_mbox_priorbox"
  type: "PriorBox"
  bottom: "conv4_3_norm"
  bottom: "data"
  top: "conv4_3_norm_mbox_priorbox"
  prior_box_param {
    min_size: 30
    aspect_ratio: 2
    flip: true
    clip: true
    variance: 0.1
    variance: 0.1
    variance: 0.2
    variance: 0.2
  }
}
layer {
  name: "fc7_mbox_loc"
  type: "Convolution"
  bottom: "fc7"
  top: "fc7_mbox_loc"
  param {
    lr_mult: 1
    decay_mult: 1
  }
  param {
    lr_mult: 2
    decay_mult: 0
  }
  convolution_param {
    num_output: 24
    pad: 1
    kernel_size: 3
    stride: 1
    weight_filler {
      type: "xavier"
    }
    bias_filler {
      type: "constant"
      value: 0
    }
  }
}
layer {
  name: "fc7_mbox_loc_perm"
  type: "Permute"
  bottom: "fc7_mbox_loc"
  top: "fc7_mbox_loc_perm"
  permute_param {
    order: 0
    order: 2
    order: 3
    order: 1
  }
}
layer {
  name: "fc7_mbox_loc_flat"
  type: "Flatten"
  bottom: "fc7_mbox_loc_perm"
  top: "fc7_mbox_loc_flat"
  flatten_param {
    axis: 1
  }
}
layer {
  name: "fc7_mbox_conf"
  type: "Convolution"
  bottom: "fc7"
  top: "fc7_mbox_conf"
  param {
    lr_mult: 1
    decay_mult: 1
  }
  param {
    lr_mult: 2
    decay_mult: 0
  }
  convolution_param {
    num_output: 24
    pad: 1
    kernel_size: 3
    stride: 1
    weight_filler {
      type: "xavier"
    }
    bias_filler {
      type: "constant"
      value: 0
    }
  }
}
layer {
  name: "fc7_mbox_conf_perm"
  type: "Permute"
  bottom: "fc7_mbox_conf"
  top: "fc7_mbox_conf_perm"
  permute_param {
    order: 0
    order: 2
    order: 3
    order: 1
  }
}
layer {
  name: "fc7_mbox_conf_flat"
  type: "Flatten"
  bottom: "fc7_mbox_conf_perm"
  top: "fc7_mbox_conf_flat"
  flatten_param {
    axis: 1
  }
}
layer {
  name: "fc7_mbox_priorbox"
  type: "PriorBox"
  bottom: "fc7"
  bottom: "data"
  top: "fc7_mbox_priorbox"
  prior_box_param {
    min_size: 60
    max_size: 114
    aspect_ratio: 2
    aspect_ratio: 3
    flip: true
    clip: true
    variance: 0.1
    variance: 0.1
    variance: 0.2
    variance: 0.2
  }
}
layer {
  name: "conv6_2_mbox_loc"
  type: "Convolution"
  bottom: "conv6_2"
  top: "conv6_2_mbox_loc"
  param {
    lr_mult: 1
    decay_mult: 1
  }
  param {
    lr_mult: 2
    decay_mult: 0
  }
  convolution_param {
    num_output: 24
    pad: 1
    kernel_size: 3
    stride: 1
    weight_filler {
      type: "xavier"
    }
    bias_filler {
      type: "constant"
      value: 0
    }
  }
}
layer {
  name: "conv6_2_mbox_loc_perm"
  type: "Permute"
  bottom: "conv6_2_mbox_loc"
  top: "conv6_2_mbox_loc_perm"
  permute_param {
    order: 0
    order: 2
    order: 3
    order: 1
  }
}
layer {
  name: "conv6_2_mbox_loc_flat"
  type: "Flatten"
  bottom: "conv6_2_mbox_loc_perm"
  top: "conv6_2_mbox_loc_flat"
  flatten_param {
    axis: 1
  }
}
layer {
  name: "conv6_2_mbox_conf"
  type: "Convolution"
  bottom: "conv6_2"
  top: "conv6_2_mbox_conf"
  param {
    lr_mult: 1
    decay_mult: 1
  }
  param {
    lr_mult: 2
    decay_mult: 0
  }
  convolution_param {
    num_output: 24
    pad: 1
    kernel_size: 3
    stride: 1
    weight_filler {
      type: "xavier"
    }
    bias_filler {
      type: "constant"
      value: 0
    }
  }
}
layer {
  name: "conv6_2_mbox_conf_perm"
  type: "Permute"
  bottom: "conv6_2_mbox_conf"
  top: "conv6_2_mbox_conf_perm"
  permute_param {
    order: 0
    order: 2
    order: 3
    order: 1
  }
}
layer {
  name: "conv6_2_mbox_conf_flat"
  type: "Flatten"
  bottom: "conv6_2_mbox_conf_perm"
  top: "conv6_2_mbox_conf_flat"
  flatten_param {
    axis: 1
  }
}
layer {
  name: "conv6_2_mbox_priorbox"
  type: "PriorBox"
  bottom: "conv6_2"
  bottom: "data"
  top: "conv6_2_mbox_priorbox"
  prior_box_param {
    min_size: 114
    max_size: 168
    aspect_ratio: 2
    aspect_ratio: 3
    flip: true
    clip: true
    variance: 0.1
    variance: 0.1
    variance: 0.2
    variance: 0.2
  }
}
layer {
  name: "conv7_2_mbox_loc"
  type: "Convolution"
  bottom: "conv7_2"
  top: "conv7_2_mbox_loc"
  param {
    lr_mult: 1
    decay_mult: 1
  }
  param {
    lr_mult: 2
    decay_mult: 0
  }
  convolution_param {
    num_output: 24
    pad: 1
    kernel_size: 3
    stride: 1
    weight_filler {
      type: "xavier"
    }
    bias_filler {
      type: "constant"
      value: 0
    }
  }
}
layer {
  name: "conv7_2_mbox_loc_perm"
  type: "Permute"
  bottom: "conv7_2_mbox_loc"
  top: "conv7_2_mbox_loc_perm"
  permute_param {
    order: 0
    order: 2
    order: 3
    order: 1
  }
}
layer {
  name: "conv7_2_mbox_loc_flat"
  type: "Flatten"
  bottom: "conv7_2_mbox_loc_perm"
  top: "conv7_2_mbox_loc_flat"
  flatten_param {
    axis: 1
  }
}
layer {
  name: "conv7_2_mbox_conf"
  type: "Convolution"
  bottom: "conv7_2"
  top: "conv7_2_mbox_conf"
  param {
    lr_mult: 1
    decay_mult: 1
  }
  param {
    lr_mult: 2
    decay_mult: 0
  }
  convolution_param {
    num_output: 24
    pad: 1
    kernel_size: 3
    stride: 1
    weight_filler {
      type: "xavier"
    }
    bias_filler {
      type: "constant"
      value: 0
    }
  }
}
layer {
  name: "conv7_2_mbox_conf_perm"
  type: "Permute"
  bottom: "conv7_2_mbox_conf"
  top: "conv7_2_mbox_conf_perm"
  permute_param {
    order: 0
    order: 2
    order: 3
    order: 1
  }
}
layer {
  name: "conv7_2_mbox_conf_flat"
  type: "Flatten"
  bottom: "conv7_2_mbox_conf_perm"
  top: "conv7_2_mbox_conf_flat"
  flatten_param {
    axis: 1
  }
}
layer {
  name: "conv7_2_mbox_priorbox"
  type: "PriorBox"
  bottom: "conv7_2"
  bottom: "data"
  top: "conv7_2_mbox_priorbox"
  prior_box_param {
    min_size: 168
    max_size: 222
    aspect_ratio: 2
    aspect_ratio: 3
    flip: true
    clip: true
    variance: 0.1
    variance: 0.1
    variance: 0.2
    variance: 0.2
  }
}
layer {
  name: "conv8_2_mbox_loc"
  type: "Convolution"
  bottom: "conv8_2"
  top: "conv8_2_mbox_loc"
  param {
    lr_mult: 1
    decay_mult: 1
  }
  param {
    lr_mult: 2
    decay_mult: 0
  }
  convolution_param {
    num_output: 24
    pad: 1
    kernel_size: 3
    stride: 1
    weight_filler {
      type: "xavier"
    }
    bias_filler {
      type: "constant"
      value: 0
    }
  }
}
layer {
  name: "conv8_2_mbox_loc_perm"
  type: "Permute"
  bottom: "conv8_2_mbox_loc"
  top: "conv8_2_mbox_loc_perm"
  permute_param {
    order: 0
    order: 2
    order: 3
    order: 1
  }
}
layer {
  name: "conv8_2_mbox_loc_flat"
  type: "Flatten"
  bottom: "conv8_2_mbox_loc_perm"
  top: "conv8_2_mbox_loc_flat"
  flatten_param {
    axis: 1
  }
}
layer {
  name: "conv8_2_mbox_conf"
  type: "Convolution"
  bottom: "conv8_2"
  top: "conv8_2_mbox_conf"
  param {
    lr_mult: 1
    decay_mult: 1
  }
  param {
    lr_mult: 2
    decay_mult: 0
  }
  convolution_param {
    num_output: 24
    pad: 1
    kernel_size: 3
    stride: 1
    weight_filler {
      type: "xavier"
    }
    bias_filler {
      type: "constant"
      value: 0
    }
  }
}
layer {
  name: "conv8_2_mbox_conf_perm"
  type: "Permute"
  bottom: "conv8_2_mbox_conf"
  top: "conv8_2_mbox_conf_perm"
  permute_param {
    order: 0
    order: 2
    order: 3
    order: 1
  }
}
layer {
  name: "conv8_2_mbox_conf_flat"
  type: "Flatten"
  bottom: "conv8_2_mbox_conf_perm"
  top: "conv8_2_mbox_conf_flat"
  flatten_param {
    axis: 1
  }
}
layer {
  name: "conv8_2_mbox_priorbox"
  type: "PriorBox"
  bottom: "conv8_2"
  bottom: "data"
  top: "conv8_2_mbox_priorbox"
  prior_box_param {
    min_size: 222
    max_size: 276
    aspect_ratio: 2
    aspect_ratio: 3
    flip: true
    clip: true
    variance: 0.1
    variance: 0.1
    variance: 0.2
    variance: 0.2
  }
}
layer {
  name: "pool6_mbox_loc"
  type: "Convolution"
  bottom: "pool6"
  top: "pool6_mbox_loc"
  param {
    lr_mult: 1
    decay_mult: 1
  }
  param {
    lr_mult: 2
    decay_mult: 0
  }
  convolution_param {
    num_output: 24
    pad: 1
    kernel_size: 3
    stride: 1
    weight_filler {
      type: "xavier"
    }
    bias_filler {
      type: "constant"
      value: 0
    }
  }
}
layer {
  name: "pool6_mbox_loc_perm"
  type: "Permute"
  bottom: "pool6_mbox_loc"
  top: "pool6_mbox_loc_perm"
  permute_param {
    order: 0
    order: 2
    order: 3
    order: 1
  }
}
layer {
  name: "pool6_mbox_loc_flat"
  type: "Flatten"
  bottom: "pool6_mbox_loc_perm"
  top: "pool6_mbox_loc_flat"
  flatten_param {
    axis: 1
  }
}
layer {
  name: "pool6_mbox_conf"
  type: "Convolution"
  bottom: "pool6"
  top: "pool6_mbox_conf"
  param {
    lr_mult: 1
    decay_mult: 1
  }
  param {
    lr_mult: 2
    decay_mult: 0
  }
  convolution_param {
    num_output: 24
    pad: 1
    kernel_size: 3
    stride: 1
    weight_filler {
      type: "xavier"
    }
    bias_filler {
      type: "constant"
      value: 0
    }
  }
}
layer {
  name: "pool6_mbox_conf_perm"
  type: "Permute"
  bottom: "pool6_mbox_conf"
  top: "pool6_mbox_conf_perm"
  permute_param {
    order: 0
    order: 2
    order: 3
    order: 1
  }
}
layer {
  name: "pool6_mbox_conf_flat"
  type: "Flatten"
  bottom: "pool6_mbox_conf_perm"
  top: "pool6_mbox_conf_flat"
  flatten_param {
    axis: 1
  }
}
layer {
  name: "pool6_mbox_priorbox"
  type: "PriorBox"
  bottom: "pool6"
  bottom: "data"
  top: "pool6_mbox_priorbox"
  prior_box_param {
    min_size: 276
    max_size: 330
    aspect_ratio: 2
    aspect_ratio: 3
    flip: true
    clip: true
    variance: 0.1
    variance: 0.1
    variance: 0.2
    variance: 0.2
  }
}
layer {
  name: "mbox_loc"
  type: "Concat"
  bottom: "conv4_3_norm_mbox_loc_flat"
  bottom: "fc7_mbox_loc_flat"
  bottom: "conv6_2_mbox_loc_flat"
  bottom: "conv7_2_mbox_loc_flat"
  bottom: "conv8_2_mbox_loc_flat"
  bottom: "pool6_mbox_loc_flat"
  top: "mbox_loc"
  concat_param {
    axis: 1
  }
}
layer {
  name: "mbox_conf"
  type: "Concat"
  bottom: "conv4_3_norm_mbox_conf_flat"
  bottom: "fc7_mbox_conf_flat"
  bottom: "conv6_2_mbox_conf_flat"
  bottom: "conv7_2_mbox_conf_flat"
  bottom: "conv8_2_mbox_conf_flat"
  bottom: "pool6_mbox_conf_flat"
  top: "mbox_conf"
  concat_param {
    axis: 1
  }
}
layer {
  name: "mbox_priorbox"
  type: "Concat"
  bottom: "conv4_3_norm_mbox_priorbox"
  bottom: "fc7_mbox_priorbox"
  bottom: "conv6_2_mbox_priorbox"
  bottom: "conv7_2_mbox_priorbox"
  bottom: "conv8_2_mbox_priorbox"
  bottom: "pool6_mbox_priorbox"
  top: "mbox_priorbox"
  concat_param {
    axis: 2
  }
}
layer {
  name: "mbox_loss"
  type: "MultiBoxLoss"
  bottom: "mbox_loc"
  bottom: "mbox_conf"
  bottom: "mbox_priorbox"
  bottom: "label"
  top: "mbox_loss"
  include {
    phase: TRAIN
  }
  propagate_down: true
  propagate_down: true
  propagate_down: false
  propagate_down: false
  loss_param {
    normalization: VALID
  }
  multibox_loss_param {
    loc_loss_type: SMOOTH_L1
    conf_loss_type: SOFTMAX
    loc_weight: 1
    num_classes: 4
    share_location: true
    match_type: PER_PREDICTION
    overlap_threshold: 0.5
    use_prior_for_matching: true
    background_label_id: 0
    use_difficult_gt: true
    do_neg_mining: true
    neg_pos_ratio: 3
    neg_overlap: 0.5
    code_type: CENTER_SIZE
  }
}
I0216 01:28:32.087218 32696 layer_factory.hpp:77] Creating layer data
I0216 01:28:32.087694 32696 net.cpp:91] Creating Layer data
I0216 01:28:32.087723 32696 net.cpp:399] data -> data
I0216 01:28:32.087772 32696 net.cpp:399] data -> label
I0216 01:28:32.089468 32704 db_lmdb.cpp:13] Jerry: openning source lmdb: /home/perception/KITTI_SSD/examples/KITTI/KITTI_train_lmdb
I0216 01:28:32.089591 32704 db_lmdb.cpp:39] Opened lmdb /home/perception/KITTI_SSD/examples/KITTI/KITTI_train_lmdb
I0216 01:28:32.138834 32696 annotated_data_layer.cpp:52] output data size: 8,3,150,600
I0216 01:28:32.164933 32696 net.cpp:141] Setting up data
I0216 01:28:32.164969 32696 net.cpp:148] Top shape: 8 3 150 600 (2160000)
I0216 01:28:32.164975 32696 net.cpp:148] Top shape: 1 1 1 8 (8)
I0216 01:28:32.164978 32696 net.cpp:156] Memory required for data: 8640032
I0216 01:28:32.164993 32696 layer_factory.hpp:77] Creating layer data_data_0_split
I0216 01:28:32.165010 32696 net.cpp:91] Creating Layer data_data_0_split
I0216 01:28:32.165020 32696 net.cpp:425] data_data_0_split <- data
I0216 01:28:32.165035 32696 net.cpp:399] data_data_0_split -> data_data_0_split_0
I0216 01:28:32.165055 32696 net.cpp:399] data_data_0_split -> data_data_0_split_1
I0216 01:28:32.165065 32696 net.cpp:399] data_data_0_split -> data_data_0_split_2
I0216 01:28:32.165074 32696 net.cpp:399] data_data_0_split -> data_data_0_split_3
I0216 01:28:32.165081 32696 net.cpp:399] data_data_0_split -> data_data_0_split_4
I0216 01:28:32.165091 32696 net.cpp:399] data_data_0_split -> data_data_0_split_5
I0216 01:28:32.165098 32696 net.cpp:399] data_data_0_split -> data_data_0_split_6
I0216 01:28:32.165212 32696 net.cpp:141] Setting up data_data_0_split
I0216 01:28:32.165220 32696 net.cpp:148] Top shape: 8 3 150 600 (2160000)
I0216 01:28:32.165225 32696 net.cpp:148] Top shape: 8 3 150 600 (2160000)
I0216 01:28:32.165230 32696 net.cpp:148] Top shape: 8 3 150 600 (2160000)
I0216 01:28:32.165251 32696 net.cpp:148] Top shape: 8 3 150 600 (2160000)
I0216 01:28:32.165254 32696 net.cpp:148] Top shape: 8 3 150 600 (2160000)
I0216 01:28:32.165257 32696 net.cpp:148] Top shape: 8 3 150 600 (2160000)
I0216 01:28:32.165261 32696 net.cpp:148] Top shape: 8 3 150 600 (2160000)
I0216 01:28:32.165264 32696 net.cpp:156] Memory required for data: 69120032
I0216 01:28:32.165268 32696 layer_factory.hpp:77] Creating layer conv1_1
I0216 01:28:32.165292 32696 net.cpp:91] Creating Layer conv1_1
I0216 01:28:32.165297 32696 net.cpp:425] conv1_1 <- data_data_0_split_0
I0216 01:28:32.165305 32696 net.cpp:399] conv1_1 -> conv1_1
I0216 01:28:32.168102 32696 net.cpp:141] Setting up conv1_1
I0216 01:28:32.168128 32696 net.cpp:148] Top shape: 8 64 150 600 (46080000)
I0216 01:28:32.168130 32696 net.cpp:156] Memory required for data: 253440032
I0216 01:28:32.168154 32696 layer_factory.hpp:77] Creating layer relu1_1
I0216 01:28:32.168166 32696 net.cpp:91] Creating Layer relu1_1
I0216 01:28:32.168171 32696 net.cpp:425] relu1_1 <- conv1_1
I0216 01:28:32.168179 32696 net.cpp:386] relu1_1 -> conv1_1 (in-place)
I0216 01:28:32.168192 32696 net.cpp:141] Setting up relu1_1
I0216 01:28:32.168197 32696 net.cpp:148] Top shape: 8 64 150 600 (46080000)
I0216 01:28:32.168200 32696 net.cpp:156] Memory required for data: 437760032
I0216 01:28:32.168203 32696 layer_factory.hpp:77] Creating layer conv1_2
I0216 01:28:32.168218 32696 net.cpp:91] Creating Layer conv1_2
I0216 01:28:32.168222 32696 net.cpp:425] conv1_2 <- conv1_1
I0216 01:28:32.168228 32696 net.cpp:399] conv1_2 -> conv1_2
I0216 01:28:32.169862 32696 net.cpp:141] Setting up conv1_2
I0216 01:28:32.169878 32696 net.cpp:148] Top shape: 8 64 150 600 (46080000)
I0216 01:28:32.169883 32696 net.cpp:156] Memory required for data: 622080032
I0216 01:28:32.169891 32696 layer_factory.hpp:77] Creating layer relu1_2
I0216 01:28:32.169898 32696 net.cpp:91] Creating Layer relu1_2
I0216 01:28:32.169903 32696 net.cpp:425] relu1_2 <- conv1_2
I0216 01:28:32.169909 32696 net.cpp:386] relu1_2 -> conv1_2 (in-place)
I0216 01:28:32.169914 32696 net.cpp:141] Setting up relu1_2
I0216 01:28:32.169920 32696 net.cpp:148] Top shape: 8 64 150 600 (46080000)
I0216 01:28:32.169924 32696 net.cpp:156] Memory required for data: 806400032
I0216 01:28:32.169925 32696 layer_factory.hpp:77] Creating layer pool1
I0216 01:28:32.169931 32696 net.cpp:91] Creating Layer pool1
I0216 01:28:32.169934 32696 net.cpp:425] pool1 <- conv1_2
I0216 01:28:32.169942 32696 net.cpp:399] pool1 -> pool1
I0216 01:28:32.169997 32696 net.cpp:141] Setting up pool1
I0216 01:28:32.170004 32696 net.cpp:148] Top shape: 8 64 75 300 (11520000)
I0216 01:28:32.170007 32696 net.cpp:156] Memory required for data: 852480032
I0216 01:28:32.170011 32696 layer_factory.hpp:77] Creating layer conv2_1
I0216 01:28:32.170022 32696 net.cpp:91] Creating Layer conv2_1
I0216 01:28:32.170027 32696 net.cpp:425] conv2_1 <- pool1
I0216 01:28:32.170032 32696 net.cpp:399] conv2_1 -> conv2_1
I0216 01:28:32.170711 32696 net.cpp:141] Setting up conv2_1
I0216 01:28:32.170720 32696 net.cpp:148] Top shape: 8 128 75 300 (23040000)
I0216 01:28:32.170723 32696 net.cpp:156] Memory required for data: 944640032
I0216 01:28:32.170732 32696 layer_factory.hpp:77] Creating layer relu2_1
I0216 01:28:32.170742 32696 net.cpp:91] Creating Layer relu2_1
I0216 01:28:32.170747 32696 net.cpp:425] relu2_1 <- conv2_1
I0216 01:28:32.170752 32696 net.cpp:386] relu2_1 -> conv2_1 (in-place)
I0216 01:28:32.170763 32696 net.cpp:141] Setting up relu2_1
I0216 01:28:32.170768 32696 net.cpp:148] Top shape: 8 128 75 300 (23040000)
I0216 01:28:32.170770 32696 net.cpp:156] Memory required for data: 1036800032
I0216 01:28:32.170773 32696 layer_factory.hpp:77] Creating layer conv2_2
I0216 01:28:32.170786 32696 net.cpp:91] Creating Layer conv2_2
I0216 01:28:32.170790 32696 net.cpp:425] conv2_2 <- conv2_1
I0216 01:28:32.170797 32696 net.cpp:399] conv2_2 -> conv2_2
I0216 01:28:32.171903 32696 net.cpp:141] Setting up conv2_2
I0216 01:28:32.171911 32696 net.cpp:148] Top shape: 8 128 75 300 (23040000)
I0216 01:28:32.171931 32696 net.cpp:156] Memory required for data: 1128960032
I0216 01:28:32.171938 32696 layer_factory.hpp:77] Creating layer relu2_2
I0216 01:28:32.171943 32696 net.cpp:91] Creating Layer relu2_2
I0216 01:28:32.171947 32696 net.cpp:425] relu2_2 <- conv2_2
I0216 01:28:32.171954 32696 net.cpp:386] relu2_2 -> conv2_2 (in-place)
I0216 01:28:32.171960 32696 net.cpp:141] Setting up relu2_2
I0216 01:28:32.171964 32696 net.cpp:148] Top shape: 8 128 75 300 (23040000)
I0216 01:28:32.171968 32696 net.cpp:156] Memory required for data: 1221120032
I0216 01:28:32.171972 32696 layer_factory.hpp:77] Creating layer pool2
I0216 01:28:32.171977 32696 net.cpp:91] Creating Layer pool2
I0216 01:28:32.171980 32696 net.cpp:425] pool2 <- conv2_2
I0216 01:28:32.171986 32696 net.cpp:399] pool2 -> pool2
I0216 01:28:32.172024 32696 net.cpp:141] Setting up pool2
I0216 01:28:32.172029 32696 net.cpp:148] Top shape: 8 128 38 150 (5836800)
I0216 01:28:32.172032 32696 net.cpp:156] Memory required for data: 1244467232
I0216 01:28:32.172035 32696 layer_factory.hpp:77] Creating layer conv3_1
I0216 01:28:32.172045 32696 net.cpp:91] Creating Layer conv3_1
I0216 01:28:32.172049 32696 net.cpp:425] conv3_1 <- pool2
I0216 01:28:32.172056 32696 net.cpp:399] conv3_1 -> conv3_1
I0216 01:28:32.176766 32696 net.cpp:141] Setting up conv3_1
I0216 01:28:32.176791 32696 net.cpp:148] Top shape: 8 256 38 150 (11673600)
I0216 01:28:32.176795 32696 net.cpp:156] Memory required for data: 1291161632
I0216 01:28:32.176810 32696 layer_factory.hpp:77] Creating layer relu3_1
I0216 01:28:32.176818 32696 net.cpp:91] Creating Layer relu3_1
I0216 01:28:32.176823 32696 net.cpp:425] relu3_1 <- conv3_1
I0216 01:28:32.176831 32696 net.cpp:386] relu3_1 -> conv3_1 (in-place)
I0216 01:28:32.176841 32696 net.cpp:141] Setting up relu3_1
I0216 01:28:32.176847 32696 net.cpp:148] Top shape: 8 256 38 150 (11673600)
I0216 01:28:32.176851 32696 net.cpp:156] Memory required for data: 1337856032
I0216 01:28:32.176853 32696 layer_factory.hpp:77] Creating layer conv3_2
I0216 01:28:32.176867 32696 net.cpp:91] Creating Layer conv3_2
I0216 01:28:32.176872 32696 net.cpp:425] conv3_2 <- conv3_1
I0216 01:28:32.176878 32696 net.cpp:399] conv3_2 -> conv3_2
I0216 01:28:32.182773 32696 net.cpp:141] Setting up conv3_2
I0216 01:28:32.182796 32696 net.cpp:148] Top shape: 8 256 38 150 (11673600)
I0216 01:28:32.182814 32696 net.cpp:156] Memory required for data: 1384550432
I0216 01:28:32.182826 32696 layer_factory.hpp:77] Creating layer relu3_2
I0216 01:28:32.182835 32696 net.cpp:91] Creating Layer relu3_2
I0216 01:28:32.182857 32696 net.cpp:425] relu3_2 <- conv3_2
I0216 01:28:32.182862 32696 net.cpp:386] relu3_2 -> conv3_2 (in-place)
I0216 01:28:32.182869 32696 net.cpp:141] Setting up relu3_2
I0216 01:28:32.182874 32696 net.cpp:148] Top shape: 8 256 38 150 (11673600)
I0216 01:28:32.182876 32696 net.cpp:156] Memory required for data: 1431244832
I0216 01:28:32.182896 32696 layer_factory.hpp:77] Creating layer conv3_3
I0216 01:28:32.182914 32696 net.cpp:91] Creating Layer conv3_3
I0216 01:28:32.182919 32696 net.cpp:425] conv3_3 <- conv3_2
I0216 01:28:32.182940 32696 net.cpp:399] conv3_3 -> conv3_3
I0216 01:28:32.191109 32696 net.cpp:141] Setting up conv3_3
I0216 01:28:32.191123 32696 net.cpp:148] Top shape: 8 256 38 150 (11673600)
I0216 01:28:32.191135 32696 net.cpp:156] Memory required for data: 1477939232
I0216 01:28:32.191141 32696 layer_factory.hpp:77] Creating layer relu3_3
I0216 01:28:32.191148 32696 net.cpp:91] Creating Layer relu3_3
I0216 01:28:32.191151 32696 net.cpp:425] relu3_3 <- conv3_3
I0216 01:28:32.191174 32696 net.cpp:386] relu3_3 -> conv3_3 (in-place)
I0216 01:28:32.191180 32696 net.cpp:141] Setting up relu3_3
I0216 01:28:32.191184 32696 net.cpp:148] Top shape: 8 256 38 150 (11673600)
I0216 01:28:32.191189 32696 net.cpp:156] Memory required for data: 1524633632
I0216 01:28:32.191190 32696 layer_factory.hpp:77] Creating layer pool3
I0216 01:28:32.191197 32696 net.cpp:91] Creating Layer pool3
I0216 01:28:32.191215 32696 net.cpp:425] pool3 <- conv3_3
I0216 01:28:32.191221 32696 net.cpp:399] pool3 -> pool3
I0216 01:28:32.191337 32696 net.cpp:141] Setting up pool3
I0216 01:28:32.191345 32696 net.cpp:148] Top shape: 8 256 19 75 (2918400)
I0216 01:28:32.191347 32696 net.cpp:156] Memory required for data: 1536307232
I0216 01:28:32.191351 32696 layer_factory.hpp:77] Creating layer conv4_1
I0216 01:28:32.191372 32696 net.cpp:91] Creating Layer conv4_1
I0216 01:28:32.191381 32696 net.cpp:425] conv4_1 <- pool3
I0216 01:28:32.191388 32696 net.cpp:399] conv4_1 -> conv4_1
I0216 01:28:32.209302 32696 net.cpp:141] Setting up conv4_1
I0216 01:28:32.209336 32696 net.cpp:148] Top shape: 8 512 19 75 (5836800)
I0216 01:28:32.209339 32696 net.cpp:156] Memory required for data: 1559654432
I0216 01:28:32.209347 32696 layer_factory.hpp:77] Creating layer relu4_1
I0216 01:28:32.209372 32696 net.cpp:91] Creating Layer relu4_1
I0216 01:28:32.209377 32696 net.cpp:425] relu4_1 <- conv4_1
I0216 01:28:32.209383 32696 net.cpp:386] relu4_1 -> conv4_1 (in-place)
I0216 01:28:32.209410 32696 net.cpp:141] Setting up relu4_1
I0216 01:28:32.209415 32696 net.cpp:148] Top shape: 8 512 19 75 (5836800)
I0216 01:28:32.209417 32696 net.cpp:156] Memory required for data: 1583001632
I0216 01:28:32.209420 32696 layer_factory.hpp:77] Creating layer conv4_2
I0216 01:28:32.209447 32696 net.cpp:91] Creating Layer conv4_2
I0216 01:28:32.209451 32696 net.cpp:425] conv4_2 <- conv4_1
I0216 01:28:32.209457 32696 net.cpp:399] conv4_2 -> conv4_2
I0216 01:28:32.236075 32696 net.cpp:141] Setting up conv4_2
I0216 01:28:32.236115 32696 net.cpp:148] Top shape: 8 512 19 75 (5836800)
I0216 01:28:32.236122 32696 net.cpp:156] Memory required for data: 1606348832
I0216 01:28:32.236151 32696 layer_factory.hpp:77] Creating layer relu4_2
I0216 01:28:32.236173 32696 net.cpp:91] Creating Layer relu4_2
I0216 01:28:32.236183 32696 net.cpp:425] relu4_2 <- conv4_2
I0216 01:28:32.236198 32696 net.cpp:386] relu4_2 -> conv4_2 (in-place)
I0216 01:28:32.236214 32696 net.cpp:141] Setting up relu4_2
I0216 01:28:32.236224 32696 net.cpp:148] Top shape: 8 512 19 75 (5836800)
I0216 01:28:32.236229 32696 net.cpp:156] Memory required for data: 1629696032
I0216 01:28:32.236237 32696 layer_factory.hpp:77] Creating layer conv4_3
I0216 01:28:32.236255 32696 net.cpp:91] Creating Layer conv4_3
I0216 01:28:32.236261 32696 net.cpp:425] conv4_3 <- conv4_2
I0216 01:28:32.236274 32696 net.cpp:399] conv4_3 -> conv4_3
I0216 01:28:32.238798 32705 blocking_queue.cpp:50] Waiting for data
I0216 01:28:32.260742 32696 net.cpp:141] Setting up conv4_3
I0216 01:28:32.260792 32696 net.cpp:148] Top shape: 8 512 19 75 (5836800)
I0216 01:28:32.260812 32696 net.cpp:156] Memory required for data: 1653043232
I0216 01:28:32.260824 32696 layer_factory.hpp:77] Creating layer relu4_3
I0216 01:28:32.260854 32696 net.cpp:91] Creating Layer relu4_3
I0216 01:28:32.260859 32696 net.cpp:425] relu4_3 <- conv4_3
I0216 01:28:32.260866 32696 net.cpp:386] relu4_3 -> conv4_3 (in-place)
I0216 01:28:32.260897 32696 net.cpp:141] Setting up relu4_3
I0216 01:28:32.260901 32696 net.cpp:148] Top shape: 8 512 19 75 (5836800)
I0216 01:28:32.260905 32696 net.cpp:156] Memory required for data: 1676390432
I0216 01:28:32.260907 32696 layer_factory.hpp:77] Creating layer conv4_3_relu4_3_0_split
I0216 01:28:32.260952 32696 net.cpp:91] Creating Layer conv4_3_relu4_3_0_split
I0216 01:28:32.260956 32696 net.cpp:425] conv4_3_relu4_3_0_split <- conv4_3
I0216 01:28:32.260977 32696 net.cpp:399] conv4_3_relu4_3_0_split -> conv4_3_relu4_3_0_split_0
I0216 01:28:32.260987 32696 net.cpp:399] conv4_3_relu4_3_0_split -> conv4_3_relu4_3_0_split_1
I0216 01:28:32.261059 32696 net.cpp:141] Setting up conv4_3_relu4_3_0_split
I0216 01:28:32.261066 32696 net.cpp:148] Top shape: 8 512 19 75 (5836800)
I0216 01:28:32.261070 32696 net.cpp:148] Top shape: 8 512 19 75 (5836800)
I0216 01:28:32.261072 32696 net.cpp:156] Memory required for data: 1723084832
I0216 01:28:32.261076 32696 layer_factory.hpp:77] Creating layer pool4
I0216 01:28:32.261103 32696 net.cpp:91] Creating Layer pool4
I0216 01:28:32.261108 32696 net.cpp:425] pool4 <- conv4_3_relu4_3_0_split_0
I0216 01:28:32.261152 32696 net.cpp:399] pool4 -> pool4
I0216 01:28:32.261227 32696 net.cpp:141] Setting up pool4
I0216 01:28:32.261234 32696 net.cpp:148] Top shape: 8 512 10 38 (1556480)
I0216 01:28:32.261236 32696 net.cpp:156] Memory required for data: 1729310752
I0216 01:28:32.261239 32696 layer_factory.hpp:77] Creating layer conv5_1
I0216 01:28:32.261277 32696 net.cpp:91] Creating Layer conv5_1
I0216 01:28:32.261296 32696 net.cpp:425] conv5_1 <- pool4
I0216 01:28:32.261306 32696 net.cpp:399] conv5_1 -> conv5_1
I0216 01:28:32.290174 32696 net.cpp:141] Setting up conv5_1
I0216 01:28:32.290241 32696 net.cpp:148] Top shape: 8 512 10 38 (1556480)
I0216 01:28:32.290243 32696 net.cpp:156] Memory required for data: 1735536672
I0216 01:28:32.290251 32696 layer_factory.hpp:77] Creating layer relu5_1
I0216 01:28:32.290277 32696 net.cpp:91] Creating Layer relu5_1
I0216 01:28:32.290282 32696 net.cpp:425] relu5_1 <- conv5_1
I0216 01:28:32.290287 32696 net.cpp:386] relu5_1 -> conv5_1 (in-place)
I0216 01:28:32.290328 32696 net.cpp:141] Setting up relu5_1
I0216 01:28:32.290331 32696 net.cpp:148] Top shape: 8 512 10 38 (1556480)
I0216 01:28:32.290343 32696 net.cpp:156] Memory required for data: 1741762592
I0216 01:28:32.290376 32696 layer_factory.hpp:77] Creating layer conv5_2
I0216 01:28:32.290418 32696 net.cpp:91] Creating Layer conv5_2
I0216 01:28:32.290441 32696 net.cpp:425] conv5_2 <- conv5_1
I0216 01:28:32.290447 32696 net.cpp:399] conv5_2 -> conv5_2
I0216 01:28:32.309154 32696 net.cpp:141] Setting up conv5_2
I0216 01:28:32.309201 32696 net.cpp:148] Top shape: 8 512 10 38 (1556480)
I0216 01:28:32.309203 32696 net.cpp:156] Memory required for data: 1747988512
I0216 01:28:32.309214 32696 layer_factory.hpp:77] Creating layer relu5_2
I0216 01:28:32.309224 32696 net.cpp:91] Creating Layer relu5_2
I0216 01:28:32.309228 32696 net.cpp:425] relu5_2 <- conv5_2
I0216 01:28:32.309253 32696 net.cpp:386] relu5_2 -> conv5_2 (in-place)
I0216 01:28:32.309264 32696 net.cpp:141] Setting up relu5_2
I0216 01:28:32.309268 32696 net.cpp:148] Top shape: 8 512 10 38 (1556480)
I0216 01:28:32.309269 32696 net.cpp:156] Memory required for data: 1754214432
I0216 01:28:32.309273 32696 layer_factory.hpp:77] Creating layer conv5_3
I0216 01:28:32.309283 32696 net.cpp:91] Creating Layer conv5_3
I0216 01:28:32.309286 32696 net.cpp:425] conv5_3 <- conv5_2
I0216 01:28:32.309306 32696 net.cpp:399] conv5_3 -> conv5_3
I0216 01:28:32.334053 32696 net.cpp:141] Setting up conv5_3
I0216 01:28:32.334102 32696 net.cpp:148] Top shape: 8 512 10 38 (1556480)
I0216 01:28:32.334105 32696 net.cpp:156] Memory required for data: 1760440352
I0216 01:28:32.334133 32696 layer_factory.hpp:77] Creating layer relu5_3
I0216 01:28:32.334170 32696 net.cpp:91] Creating Layer relu5_3
I0216 01:28:32.334175 32696 net.cpp:425] relu5_3 <- conv5_3
I0216 01:28:32.334182 32696 net.cpp:386] relu5_3 -> conv5_3 (in-place)
I0216 01:28:32.334213 32696 net.cpp:141] Setting up relu5_3
I0216 01:28:32.334218 32696 net.cpp:148] Top shape: 8 512 10 38 (1556480)
I0216 01:28:32.334219 32696 net.cpp:156] Memory required for data: 1766666272
I0216 01:28:32.334221 32696 layer_factory.hpp:77] Creating layer pool5
I0216 01:28:32.334226 32696 net.cpp:91] Creating Layer pool5
I0216 01:28:32.334230 32696 net.cpp:425] pool5 <- conv5_3
I0216 01:28:32.334254 32696 net.cpp:399] pool5 -> pool5
I0216 01:28:32.334416 32696 net.cpp:141] Setting up pool5
I0216 01:28:32.334424 32696 net.cpp:148] Top shape: 8 512 10 38 (1556480)
I0216 01:28:32.334425 32696 net.cpp:156] Memory required for data: 1772892192
I0216 01:28:32.334429 32696 layer_factory.hpp:77] Creating layer fc6
I0216 01:28:32.334460 32696 net.cpp:91] Creating Layer fc6
I0216 01:28:32.334465 32696 net.cpp:425] fc6 <- pool5
I0216 01:28:32.334470 32696 net.cpp:399] fc6 -> fc6
I0216 01:28:32.392763 32696 net.cpp:141] Setting up fc6
I0216 01:28:32.392802 32696 net.cpp:148] Top shape: 8 1024 10 38 (3112960)
I0216 01:28:32.392807 32696 net.cpp:156] Memory required for data: 1785344032
I0216 01:28:32.392820 32696 layer_factory.hpp:77] Creating layer relu6
I0216 01:28:32.392845 32696 net.cpp:91] Creating Layer relu6
I0216 01:28:32.392884 32696 net.cpp:425] relu6 <- fc6
I0216 01:28:32.392894 32696 net.cpp:386] relu6 -> fc6 (in-place)
I0216 01:28:32.392907 32696 net.cpp:141] Setting up relu6
I0216 01:28:32.392915 32696 net.cpp:148] Top shape: 8 1024 10 38 (3112960)
I0216 01:28:32.392918 32696 net.cpp:156] Memory required for data: 1797795872
I0216 01:28:32.392922 32696 layer_factory.hpp:77] Creating layer fc7
I0216 01:28:32.392940 32696 net.cpp:91] Creating Layer fc7
I0216 01:28:32.392945 32696 net.cpp:425] fc7 <- fc6
I0216 01:28:32.392953 32696 net.cpp:399] fc7 -> fc7
I0216 01:28:32.405438 32696 net.cpp:141] Setting up fc7
I0216 01:28:32.405455 32696 net.cpp:148] Top shape: 8 1024 10 38 (3112960)
I0216 01:28:32.405460 32696 net.cpp:156] Memory required for data: 1810247712
I0216 01:28:32.405469 32696 layer_factory.hpp:77] Creating layer relu7
I0216 01:28:32.405479 32696 net.cpp:91] Creating Layer relu7
I0216 01:28:32.405483 32696 net.cpp:425] relu7 <- fc7
I0216 01:28:32.405491 32696 net.cpp:386] relu7 -> fc7 (in-place)
I0216 01:28:32.405500 32696 net.cpp:141] Setting up relu7
I0216 01:28:32.405506 32696 net.cpp:148] Top shape: 8 1024 10 38 (3112960)
I0216 01:28:32.405509 32696 net.cpp:156] Memory required for data: 1822699552
I0216 01:28:32.405514 32696 layer_factory.hpp:77] Creating layer fc7_relu7_0_split
I0216 01:28:32.405522 32696 net.cpp:91] Creating Layer fc7_relu7_0_split
I0216 01:28:32.405527 32696 net.cpp:425] fc7_relu7_0_split <- fc7
I0216 01:28:32.405534 32696 net.cpp:399] fc7_relu7_0_split -> fc7_relu7_0_split_0
I0216 01:28:32.405544 32696 net.cpp:399] fc7_relu7_0_split -> fc7_relu7_0_split_1
I0216 01:28:32.405565 32696 net.cpp:399] fc7_relu7_0_split -> fc7_relu7_0_split_2
I0216 01:28:32.405573 32696 net.cpp:399] fc7_relu7_0_split -> fc7_relu7_0_split_3
I0216 01:28:32.405655 32696 net.cpp:141] Setting up fc7_relu7_0_split
I0216 01:28:32.405673 32696 net.cpp:148] Top shape: 8 1024 10 38 (3112960)
I0216 01:28:32.405678 32696 net.cpp:148] Top shape: 8 1024 10 38 (3112960)
I0216 01:28:32.405683 32696 net.cpp:148] Top shape: 8 1024 10 38 (3112960)
I0216 01:28:32.405688 32696 net.cpp:148] Top shape: 8 1024 10 38 (3112960)
I0216 01:28:32.405692 32696 net.cpp:156] Memory required for data: 1872506912
I0216 01:28:32.405696 32696 layer_factory.hpp:77] Creating layer conv6_1
I0216 01:28:32.405709 32696 net.cpp:91] Creating Layer conv6_1
I0216 01:28:32.405714 32696 net.cpp:425] conv6_1 <- fc7_relu7_0_split_0
I0216 01:28:32.405730 32696 net.cpp:399] conv6_1 -> conv6_1
I0216 01:28:32.410094 32696 net.cpp:141] Setting up conv6_1
I0216 01:28:32.410110 32696 net.cpp:148] Top shape: 8 256 10 38 (778240)
I0216 01:28:32.410115 32696 net.cpp:156] Memory required for data: 1875619872
I0216 01:28:32.410123 32696 layer_factory.hpp:77] Creating layer conv6_1_relu
I0216 01:28:32.410131 32696 net.cpp:91] Creating Layer conv6_1_relu
I0216 01:28:32.410135 32696 net.cpp:425] conv6_1_relu <- conv6_1
I0216 01:28:32.410145 32696 net.cpp:386] conv6_1_relu -> conv6_1 (in-place)
I0216 01:28:32.410153 32696 net.cpp:141] Setting up conv6_1_relu
I0216 01:28:32.410159 32696 net.cpp:148] Top shape: 8 256 10 38 (778240)
I0216 01:28:32.410162 32696 net.cpp:156] Memory required for data: 1878732832
I0216 01:28:32.410166 32696 layer_factory.hpp:77] Creating layer conv6_2
I0216 01:28:32.410181 32696 net.cpp:91] Creating Layer conv6_2
I0216 01:28:32.410184 32696 net.cpp:425] conv6_2 <- conv6_1
I0216 01:28:32.410192 32696 net.cpp:399] conv6_2 -> conv6_2
I0216 01:28:32.423004 32696 net.cpp:141] Setting up conv6_2
I0216 01:28:32.423020 32696 net.cpp:148] Top shape: 8 512 5 19 (389120)
I0216 01:28:32.423023 32696 net.cpp:156] Memory required for data: 1880289312
I0216 01:28:32.423043 32696 layer_factory.hpp:77] Creating layer conv6_2_relu
I0216 01:28:32.423050 32696 net.cpp:91] Creating Layer conv6_2_relu
I0216 01:28:32.423055 32696 net.cpp:425] conv6_2_relu <- conv6_2
I0216 01:28:32.423061 32696 net.cpp:386] conv6_2_relu -> conv6_2 (in-place)
I0216 01:28:32.423069 32696 net.cpp:141] Setting up conv6_2_relu
I0216 01:28:32.423074 32696 net.cpp:148] Top shape: 8 512 5 19 (389120)
I0216 01:28:32.423097 32696 net.cpp:156] Memory required for data: 1881845792
I0216 01:28:32.423101 32696 layer_factory.hpp:77] Creating layer conv6_2_conv6_2_relu_0_split
I0216 01:28:32.423110 32696 net.cpp:91] Creating Layer conv6_2_conv6_2_relu_0_split
I0216 01:28:32.423115 32696 net.cpp:425] conv6_2_conv6_2_relu_0_split <- conv6_2
I0216 01:28:32.423123 32696 net.cpp:399] conv6_2_conv6_2_relu_0_split -> conv6_2_conv6_2_relu_0_split_0
I0216 01:28:32.423146 32696 net.cpp:399] conv6_2_conv6_2_relu_0_split -> conv6_2_conv6_2_relu_0_split_1
I0216 01:28:32.423153 32696 net.cpp:399] conv6_2_conv6_2_relu_0_split -> conv6_2_conv6_2_relu_0_split_2
I0216 01:28:32.423161 32696 net.cpp:399] conv6_2_conv6_2_relu_0_split -> conv6_2_conv6_2_relu_0_split_3
I0216 01:28:32.423265 32696 net.cpp:141] Setting up conv6_2_conv6_2_relu_0_split
I0216 01:28:32.423277 32696 net.cpp:148] Top shape: 8 512 5 19 (389120)
I0216 01:28:32.423281 32696 net.cpp:148] Top shape: 8 512 5 19 (389120)
I0216 01:28:32.423286 32696 net.cpp:148] Top shape: 8 512 5 19 (389120)
I0216 01:28:32.423291 32696 net.cpp:148] Top shape: 8 512 5 19 (389120)
I0216 01:28:32.423295 32696 net.cpp:156] Memory required for data: 1888071712
I0216 01:28:32.423297 32696 layer_factory.hpp:77] Creating layer conv7_1
I0216 01:28:32.423310 32696 net.cpp:91] Creating Layer conv7_1
I0216 01:28:32.423315 32696 net.cpp:425] conv7_1 <- conv6_2_conv6_2_relu_0_split_0
I0216 01:28:32.423322 32696 net.cpp:399] conv7_1 -> conv7_1
I0216 01:28:32.424160 32696 net.cpp:141] Setting up conv7_1
I0216 01:28:32.424168 32696 net.cpp:148] Top shape: 8 128 5 19 (97280)
I0216 01:28:32.424172 32696 net.cpp:156] Memory required for data: 1888460832
I0216 01:28:32.424180 32696 layer_factory.hpp:77] Creating layer conv7_1_relu
I0216 01:28:32.424185 32696 net.cpp:91] Creating Layer conv7_1_relu
I0216 01:28:32.424188 32696 net.cpp:425] conv7_1_relu <- conv7_1
I0216 01:28:32.424197 32696 net.cpp:386] conv7_1_relu -> conv7_1 (in-place)
I0216 01:28:32.424202 32696 net.cpp:141] Setting up conv7_1_relu
I0216 01:28:32.424207 32696 net.cpp:148] Top shape: 8 128 5 19 (97280)
I0216 01:28:32.424211 32696 net.cpp:156] Memory required for data: 1888849952
I0216 01:28:32.424214 32696 layer_factory.hpp:77] Creating layer conv7_2
I0216 01:28:32.424223 32696 net.cpp:91] Creating Layer conv7_2
I0216 01:28:32.424227 32696 net.cpp:425] conv7_2 <- conv7_1
I0216 01:28:32.424233 32696 net.cpp:399] conv7_2 -> conv7_2
I0216 01:28:32.428388 32696 net.cpp:141] Setting up conv7_2
I0216 01:28:32.428403 32696 net.cpp:148] Top shape: 8 256 3 10 (61440)
I0216 01:28:32.428406 32696 net.cpp:156] Memory required for data: 1889095712
I0216 01:28:32.428413 32696 layer_factory.hpp:77] Creating layer conv7_2_relu
I0216 01:28:32.428421 32696 net.cpp:91] Creating Layer conv7_2_relu
I0216 01:28:32.428426 32696 net.cpp:425] conv7_2_relu <- conv7_2
I0216 01:28:32.428432 32696 net.cpp:386] conv7_2_relu -> conv7_2 (in-place)
I0216 01:28:32.428441 32696 net.cpp:141] Setting up conv7_2_relu
I0216 01:28:32.428447 32696 net.cpp:148] Top shape: 8 256 3 10 (61440)
I0216 01:28:32.428449 32696 net.cpp:156] Memory required for data: 1889341472
I0216 01:28:32.428452 32696 layer_factory.hpp:77] Creating layer conv7_2_conv7_2_relu_0_split
I0216 01:28:32.428459 32696 net.cpp:91] Creating Layer conv7_2_conv7_2_relu_0_split
I0216 01:28:32.428464 32696 net.cpp:425] conv7_2_conv7_2_relu_0_split <- conv7_2
I0216 01:28:32.428472 32696 net.cpp:399] conv7_2_conv7_2_relu_0_split -> conv7_2_conv7_2_relu_0_split_0
I0216 01:28:32.428479 32696 net.cpp:399] conv7_2_conv7_2_relu_0_split -> conv7_2_conv7_2_relu_0_split_1
I0216 01:28:32.428488 32696 net.cpp:399] conv7_2_conv7_2_relu_0_split -> conv7_2_conv7_2_relu_0_split_2
I0216 01:28:32.428496 32696 net.cpp:399] conv7_2_conv7_2_relu_0_split -> conv7_2_conv7_2_relu_0_split_3
I0216 01:28:32.428570 32696 net.cpp:141] Setting up conv7_2_conv7_2_relu_0_split
I0216 01:28:32.428578 32696 net.cpp:148] Top shape: 8 256 3 10 (61440)
I0216 01:28:32.428584 32696 net.cpp:148] Top shape: 8 256 3 10 (61440)
I0216 01:28:32.428602 32696 net.cpp:148] Top shape: 8 256 3 10 (61440)
I0216 01:28:32.428606 32696 net.cpp:148] Top shape: 8 256 3 10 (61440)
I0216 01:28:32.428609 32696 net.cpp:156] Memory required for data: 1890324512
I0216 01:28:32.428613 32696 layer_factory.hpp:77] Creating layer conv8_1
I0216 01:28:32.428627 32696 net.cpp:91] Creating Layer conv8_1
I0216 01:28:32.428630 32696 net.cpp:425] conv8_1 <- conv7_2_conv7_2_relu_0_split_0
I0216 01:28:32.428639 32696 net.cpp:399] conv8_1 -> conv8_1
I0216 01:28:32.429183 32696 net.cpp:141] Setting up conv8_1
I0216 01:28:32.429193 32696 net.cpp:148] Top shape: 8 128 3 10 (30720)
I0216 01:28:32.429196 32696 net.cpp:156] Memory required for data: 1890447392
I0216 01:28:32.429203 32696 layer_factory.hpp:77] Creating layer conv8_1_relu
I0216 01:28:32.429211 32696 net.cpp:91] Creating Layer conv8_1_relu
I0216 01:28:32.429215 32696 net.cpp:425] conv8_1_relu <- conv8_1
I0216 01:28:32.429220 32696 net.cpp:386] conv8_1_relu -> conv8_1 (in-place)
I0216 01:28:32.429226 32696 net.cpp:141] Setting up conv8_1_relu
I0216 01:28:32.429231 32696 net.cpp:148] Top shape: 8 128 3 10 (30720)
I0216 01:28:32.429235 32696 net.cpp:156] Memory required for data: 1890570272
I0216 01:28:32.429239 32696 layer_factory.hpp:77] Creating layer conv8_2
I0216 01:28:32.429249 32696 net.cpp:91] Creating Layer conv8_2
I0216 01:28:32.429252 32696 net.cpp:425] conv8_2 <- conv8_1
I0216 01:28:32.429260 32696 net.cpp:399] conv8_2 -> conv8_2
I0216 01:28:32.433531 32696 net.cpp:141] Setting up conv8_2
I0216 01:28:32.433547 32696 net.cpp:148] Top shape: 8 256 2 5 (20480)
I0216 01:28:32.433550 32696 net.cpp:156] Memory required for data: 1890652192
I0216 01:28:32.433558 32696 layer_factory.hpp:77] Creating layer conv8_2_relu
I0216 01:28:32.433568 32696 net.cpp:91] Creating Layer conv8_2_relu
I0216 01:28:32.433573 32696 net.cpp:425] conv8_2_relu <- conv8_2
I0216 01:28:32.433578 32696 net.cpp:386] conv8_2_relu -> conv8_2 (in-place)
I0216 01:28:32.433586 32696 net.cpp:141] Setting up conv8_2_relu
I0216 01:28:32.433591 32696 net.cpp:148] Top shape: 8 256 2 5 (20480)
I0216 01:28:32.433594 32696 net.cpp:156] Memory required for data: 1890734112
I0216 01:28:32.433598 32696 layer_factory.hpp:77] Creating layer conv8_2_conv8_2_relu_0_split
I0216 01:28:32.433606 32696 net.cpp:91] Creating Layer conv8_2_conv8_2_relu_0_split
I0216 01:28:32.433610 32696 net.cpp:425] conv8_2_conv8_2_relu_0_split <- conv8_2
I0216 01:28:32.433615 32696 net.cpp:399] conv8_2_conv8_2_relu_0_split -> conv8_2_conv8_2_relu_0_split_0
I0216 01:28:32.433624 32696 net.cpp:399] conv8_2_conv8_2_relu_0_split -> conv8_2_conv8_2_relu_0_split_1
I0216 01:28:32.433635 32696 net.cpp:399] conv8_2_conv8_2_relu_0_split -> conv8_2_conv8_2_relu_0_split_2
I0216 01:28:32.433643 32696 net.cpp:399] conv8_2_conv8_2_relu_0_split -> conv8_2_conv8_2_relu_0_split_3
I0216 01:28:32.433738 32696 net.cpp:141] Setting up conv8_2_conv8_2_relu_0_split
I0216 01:28:32.433746 32696 net.cpp:148] Top shape: 8 256 2 5 (20480)
I0216 01:28:32.433751 32696 net.cpp:148] Top shape: 8 256 2 5 (20480)
I0216 01:28:32.433756 32696 net.cpp:148] Top shape: 8 256 2 5 (20480)
I0216 01:28:32.433760 32696 net.cpp:148] Top shape: 8 256 2 5 (20480)
I0216 01:28:32.433763 32696 net.cpp:156] Memory required for data: 1891061792
I0216 01:28:32.433768 32696 layer_factory.hpp:77] Creating layer pool6
I0216 01:28:32.433779 32696 net.cpp:91] Creating Layer pool6
I0216 01:28:32.433784 32696 net.cpp:425] pool6 <- conv8_2_conv8_2_relu_0_split_0
I0216 01:28:32.433789 32696 net.cpp:399] pool6 -> pool6
I0216 01:28:32.433833 32696 net.cpp:141] Setting up pool6
I0216 01:28:32.433840 32696 net.cpp:148] Top shape: 8 256 1 1 (2048)
I0216 01:28:32.433843 32696 net.cpp:156] Memory required for data: 1891069984
I0216 01:28:32.433846 32696 layer_factory.hpp:77] Creating layer pool6_pool6_0_split
I0216 01:28:32.433854 32696 net.cpp:91] Creating Layer pool6_pool6_0_split
I0216 01:28:32.433857 32696 net.cpp:425] pool6_pool6_0_split <- pool6
I0216 01:28:32.433864 32696 net.cpp:399] pool6_pool6_0_split -> pool6_pool6_0_split_0
I0216 01:28:32.433887 32696 net.cpp:399] pool6_pool6_0_split -> pool6_pool6_0_split_1
I0216 01:28:32.433897 32696 net.cpp:399] pool6_pool6_0_split -> pool6_pool6_0_split_2
I0216 01:28:32.433951 32696 net.cpp:141] Setting up pool6_pool6_0_split
I0216 01:28:32.433959 32696 net.cpp:148] Top shape: 8 256 1 1 (2048)
I0216 01:28:32.433964 32696 net.cpp:148] Top shape: 8 256 1 1 (2048)
I0216 01:28:32.433969 32696 net.cpp:148] Top shape: 8 256 1 1 (2048)
I0216 01:28:32.433971 32696 net.cpp:156] Memory required for data: 1891094560
I0216 01:28:32.433974 32696 layer_factory.hpp:77] Creating layer conv4_3_norm
I0216 01:28:32.433985 32696 net.cpp:91] Creating Layer conv4_3_norm
I0216 01:28:32.433991 32696 net.cpp:425] conv4_3_norm <- conv4_3_relu4_3_0_split_1
I0216 01:28:32.433997 32696 net.cpp:399] conv4_3_norm -> conv4_3_norm
I0216 01:28:32.434171 32696 net.cpp:141] Setting up conv4_3_norm
I0216 01:28:32.434182 32696 net.cpp:148] Top shape: 8 512 19 75 (5836800)
I0216 01:28:32.434190 32696 net.cpp:156] Memory required for data: 1914441760
I0216 01:28:32.434197 32696 layer_factory.hpp:77] Creating layer conv4_3_norm_conv4_3_norm_0_split
I0216 01:28:32.434211 32696 net.cpp:91] Creating Layer conv4_3_norm_conv4_3_norm_0_split
I0216 01:28:32.434226 32696 net.cpp:425] conv4_3_norm_conv4_3_norm_0_split <- conv4_3_norm
I0216 01:28:32.434237 32696 net.cpp:399] conv4_3_norm_conv4_3_norm_0_split -> conv4_3_norm_conv4_3_norm_0_split_0
I0216 01:28:32.434249 32696 net.cpp:399] conv4_3_norm_conv4_3_norm_0_split -> conv4_3_norm_conv4_3_norm_0_split_1
I0216 01:28:32.434260 32696 net.cpp:399] conv4_3_norm_conv4_3_norm_0_split -> conv4_3_norm_conv4_3_norm_0_split_2
I0216 01:28:32.434355 32696 net.cpp:141] Setting up conv4_3_norm_conv4_3_norm_0_split
I0216 01:28:32.434376 32696 net.cpp:148] Top shape: 8 512 19 75 (5836800)
I0216 01:28:32.434383 32696 net.cpp:148] Top shape: 8 512 19 75 (5836800)
I0216 01:28:32.434391 32696 net.cpp:148] Top shape: 8 512 19 75 (5836800)
I0216 01:28:32.434396 32696 net.cpp:156] Memory required for data: 1984483360
I0216 01:28:32.434401 32696 layer_factory.hpp:77] Creating layer conv4_3_norm_mbox_loc
I0216 01:28:32.434414 32696 net.cpp:91] Creating Layer conv4_3_norm_mbox_loc
I0216 01:28:32.434418 32696 net.cpp:425] conv4_3_norm_mbox_loc <- conv4_3_norm_conv4_3_norm_0_split_0
I0216 01:28:32.434427 32696 net.cpp:399] conv4_3_norm_mbox_loc -> conv4_3_norm_mbox_loc
I0216 01:28:32.435220 32696 net.cpp:141] Setting up conv4_3_norm_mbox_loc
I0216 01:28:32.435236 32696 net.cpp:148] Top shape: 8 12 19 75 (136800)
I0216 01:28:32.435240 32696 net.cpp:156] Memory required for data: 1985030560
I0216 01:28:32.435246 32696 layer_factory.hpp:77] Creating layer conv4_3_norm_mbox_loc_perm
I0216 01:28:32.435257 32696 net.cpp:91] Creating Layer conv4_3_norm_mbox_loc_perm
I0216 01:28:32.435261 32696 net.cpp:425] conv4_3_norm_mbox_loc_perm <- conv4_3_norm_mbox_loc
I0216 01:28:32.435267 32696 net.cpp:399] conv4_3_norm_mbox_loc_perm -> conv4_3_norm_mbox_loc_perm
I0216 01:28:32.435384 32696 net.cpp:141] Setting up conv4_3_norm_mbox_loc_perm
I0216 01:28:32.435394 32696 net.cpp:148] Top shape: 8 19 75 12 (136800)
I0216 01:28:32.435396 32696 net.cpp:156] Memory required for data: 1985577760
I0216 01:28:32.435400 32696 layer_factory.hpp:77] Creating layer conv4_3_norm_mbox_loc_flat
I0216 01:28:32.435408 32696 net.cpp:91] Creating Layer conv4_3_norm_mbox_loc_flat
I0216 01:28:32.435413 32696 net.cpp:425] conv4_3_norm_mbox_loc_flat <- conv4_3_norm_mbox_loc_perm
I0216 01:28:32.435421 32696 net.cpp:399] conv4_3_norm_mbox_loc_flat -> conv4_3_norm_mbox_loc_flat
I0216 01:28:32.435451 32696 net.cpp:141] Setting up conv4_3_norm_mbox_loc_flat
I0216 01:28:32.435458 32696 net.cpp:148] Top shape: 8 17100 (136800)
I0216 01:28:32.435462 32696 net.cpp:156] Memory required for data: 1986124960
I0216 01:28:32.435466 32696 layer_factory.hpp:77] Creating layer conv4_3_norm_mbox_conf
I0216 01:28:32.435482 32696 net.cpp:91] Creating Layer conv4_3_norm_mbox_conf
I0216 01:28:32.435485 32696 net.cpp:425] conv4_3_norm_mbox_conf <- conv4_3_norm_conv4_3_norm_0_split_1
I0216 01:28:32.435500 32696 net.cpp:399] conv4_3_norm_mbox_conf -> conv4_3_norm_mbox_conf
I0216 01:28:32.436255 32696 net.cpp:141] Setting up conv4_3_norm_mbox_conf
I0216 01:28:32.436265 32696 net.cpp:148] Top shape: 8 12 19 75 (136800)
I0216 01:28:32.436269 32696 net.cpp:156] Memory required for data: 1986672160
I0216 01:28:32.436275 32696 layer_factory.hpp:77] Creating layer conv4_3_norm_mbox_conf_perm
I0216 01:28:32.436283 32696 net.cpp:91] Creating Layer conv4_3_norm_mbox_conf_perm
I0216 01:28:32.436287 32696 net.cpp:425] conv4_3_norm_mbox_conf_perm <- conv4_3_norm_mbox_conf
I0216 01:28:32.436295 32696 net.cpp:399] conv4_3_norm_mbox_conf_perm -> conv4_3_norm_mbox_conf_perm
I0216 01:28:32.436436 32696 net.cpp:141] Setting up conv4_3_norm_mbox_conf_perm
I0216 01:28:32.436449 32696 net.cpp:148] Top shape: 8 19 75 12 (136800)
I0216 01:28:32.436451 32696 net.cpp:156] Memory required for data: 1987219360
I0216 01:28:32.436455 32696 layer_factory.hpp:77] Creating layer conv4_3_norm_mbox_conf_flat
I0216 01:28:32.436462 32696 net.cpp:91] Creating Layer conv4_3_norm_mbox_conf_flat
I0216 01:28:32.436466 32696 net.cpp:425] conv4_3_norm_mbox_conf_flat <- conv4_3_norm_mbox_conf_perm
I0216 01:28:32.436475 32696 net.cpp:399] conv4_3_norm_mbox_conf_flat -> conv4_3_norm_mbox_conf_flat
I0216 01:28:32.436499 32696 net.cpp:141] Setting up conv4_3_norm_mbox_conf_flat
I0216 01:28:32.436507 32696 net.cpp:148] Top shape: 8 17100 (136800)
I0216 01:28:32.436511 32696 net.cpp:156] Memory required for data: 1987766560
I0216 01:28:32.436513 32696 layer_factory.hpp:77] Creating layer conv4_3_norm_mbox_priorbox
I0216 01:28:32.436538 32696 net.cpp:91] Creating Layer conv4_3_norm_mbox_priorbox
I0216 01:28:32.436544 32696 net.cpp:425] conv4_3_norm_mbox_priorbox <- conv4_3_norm_conv4_3_norm_0_split_2
I0216 01:28:32.436549 32696 net.cpp:425] conv4_3_norm_mbox_priorbox <- data_data_0_split_1
I0216 01:28:32.436556 32696 net.cpp:399] conv4_3_norm_mbox_priorbox -> conv4_3_norm_mbox_priorbox
I0216 01:28:32.436601 32696 net.cpp:141] Setting up conv4_3_norm_mbox_priorbox
I0216 01:28:32.436610 32696 net.cpp:148] Top shape: 1 2 17100 (34200)
I0216 01:28:32.436614 32696 net.cpp:156] Memory required for data: 1987903360
I0216 01:28:32.436616 32696 layer_factory.hpp:77] Creating layer fc7_mbox_loc
I0216 01:28:32.436630 32696 net.cpp:91] Creating Layer fc7_mbox_loc
I0216 01:28:32.436635 32696 net.cpp:425] fc7_mbox_loc <- fc7_relu7_0_split_1
I0216 01:28:32.436642 32696 net.cpp:399] fc7_mbox_loc -> fc7_mbox_loc
I0216 01:28:32.438493 32696 net.cpp:141] Setting up fc7_mbox_loc
I0216 01:28:32.438503 32696 net.cpp:148] Top shape: 8 24 10 38 (72960)
I0216 01:28:32.438506 32696 net.cpp:156] Memory required for data: 1988195200
I0216 01:28:32.438513 32696 layer_factory.hpp:77] Creating layer fc7_mbox_loc_perm
I0216 01:28:32.438526 32696 net.cpp:91] Creating Layer fc7_mbox_loc_perm
I0216 01:28:32.438531 32696 net.cpp:425] fc7_mbox_loc_perm <- fc7_mbox_loc
I0216 01:28:32.438537 32696 net.cpp:399] fc7_mbox_loc_perm -> fc7_mbox_loc_perm
I0216 01:28:32.438652 32696 net.cpp:141] Setting up fc7_mbox_loc_perm
I0216 01:28:32.438660 32696 net.cpp:148] Top shape: 8 10 38 24 (72960)
I0216 01:28:32.438663 32696 net.cpp:156] Memory required for data: 1988487040
I0216 01:28:32.438668 32696 layer_factory.hpp:77] Creating layer fc7_mbox_loc_flat
I0216 01:28:32.438675 32696 net.cpp:91] Creating Layer fc7_mbox_loc_flat
I0216 01:28:32.438678 32696 net.cpp:425] fc7_mbox_loc_flat <- fc7_mbox_loc_perm
I0216 01:28:32.438684 32696 net.cpp:399] fc7_mbox_loc_flat -> fc7_mbox_loc_flat
I0216 01:28:32.438710 32696 net.cpp:141] Setting up fc7_mbox_loc_flat
I0216 01:28:32.438716 32696 net.cpp:148] Top shape: 8 9120 (72960)
I0216 01:28:32.438719 32696 net.cpp:156] Memory required for data: 1988778880
I0216 01:28:32.438722 32696 layer_factory.hpp:77] Creating layer fc7_mbox_conf
I0216 01:28:32.438735 32696 net.cpp:91] Creating Layer fc7_mbox_conf
I0216 01:28:32.438738 32696 net.cpp:425] fc7_mbox_conf <- fc7_relu7_0_split_2
I0216 01:28:32.438746 32696 net.cpp:399] fc7_mbox_conf -> fc7_mbox_conf
I0216 01:28:32.440600 32696 net.cpp:141] Setting up fc7_mbox_conf
I0216 01:28:32.440623 32696 net.cpp:148] Top shape: 8 24 10 38 (72960)
I0216 01:28:32.440626 32696 net.cpp:156] Memory required for data: 1989070720
I0216 01:28:32.440632 32696 layer_factory.hpp:77] Creating layer fc7_mbox_conf_perm
I0216 01:28:32.440639 32696 net.cpp:91] Creating Layer fc7_mbox_conf_perm
I0216 01:28:32.440644 32696 net.cpp:425] fc7_mbox_conf_perm <- fc7_mbox_conf
I0216 01:28:32.440650 32696 net.cpp:399] fc7_mbox_conf_perm -> fc7_mbox_conf_perm
I0216 01:28:32.440764 32696 net.cpp:141] Setting up fc7_mbox_conf_perm
I0216 01:28:32.440773 32696 net.cpp:148] Top shape: 8 10 38 24 (72960)
I0216 01:28:32.440776 32696 net.cpp:156] Memory required for data: 1989362560
I0216 01:28:32.440779 32696 layer_factory.hpp:77] Creating layer fc7_mbox_conf_flat
I0216 01:28:32.440788 32696 net.cpp:91] Creating Layer fc7_mbox_conf_flat
I0216 01:28:32.440790 32696 net.cpp:425] fc7_mbox_conf_flat <- fc7_mbox_conf_perm
I0216 01:28:32.440796 32696 net.cpp:399] fc7_mbox_conf_flat -> fc7_mbox_conf_flat
I0216 01:28:32.440822 32696 net.cpp:141] Setting up fc7_mbox_conf_flat
I0216 01:28:32.440829 32696 net.cpp:148] Top shape: 8 9120 (72960)
I0216 01:28:32.440831 32696 net.cpp:156] Memory required for data: 1989654400
I0216 01:28:32.440835 32696 layer_factory.hpp:77] Creating layer fc7_mbox_priorbox
I0216 01:28:32.440843 32696 net.cpp:91] Creating Layer fc7_mbox_priorbox
I0216 01:28:32.440847 32696 net.cpp:425] fc7_mbox_priorbox <- fc7_relu7_0_split_3
I0216 01:28:32.440852 32696 net.cpp:425] fc7_mbox_priorbox <- data_data_0_split_2
I0216 01:28:32.440858 32696 net.cpp:399] fc7_mbox_priorbox -> fc7_mbox_priorbox
I0216 01:28:32.440886 32696 net.cpp:141] Setting up fc7_mbox_priorbox
I0216 01:28:32.440894 32696 net.cpp:148] Top shape: 1 2 9120 (18240)
I0216 01:28:32.440896 32696 net.cpp:156] Memory required for data: 1989727360
I0216 01:28:32.440901 32696 layer_factory.hpp:77] Creating layer conv6_2_mbox_loc
I0216 01:28:32.440914 32696 net.cpp:91] Creating Layer conv6_2_mbox_loc
I0216 01:28:32.440920 32696 net.cpp:425] conv6_2_mbox_loc <- conv6_2_conv6_2_relu_0_split_1
I0216 01:28:32.440930 32696 net.cpp:399] conv6_2_mbox_loc -> conv6_2_mbox_loc
I0216 01:28:32.442003 32696 net.cpp:141] Setting up conv6_2_mbox_loc
I0216 01:28:32.442013 32696 net.cpp:148] Top shape: 8 24 5 19 (18240)
I0216 01:28:32.442015 32696 net.cpp:156] Memory required for data: 1989800320
I0216 01:28:32.442023 32696 layer_factory.hpp:77] Creating layer conv6_2_mbox_loc_perm
I0216 01:28:32.442031 32696 net.cpp:91] Creating Layer conv6_2_mbox_loc_perm
I0216 01:28:32.442035 32696 net.cpp:425] conv6_2_mbox_loc_perm <- conv6_2_mbox_loc
I0216 01:28:32.442044 32696 net.cpp:399] conv6_2_mbox_loc_perm -> conv6_2_mbox_loc_perm
I0216 01:28:32.442154 32696 net.cpp:141] Setting up conv6_2_mbox_loc_perm
I0216 01:28:32.442164 32696 net.cpp:148] Top shape: 8 5 19 24 (18240)
I0216 01:28:32.442167 32696 net.cpp:156] Memory required for data: 1989873280
I0216 01:28:32.442170 32696 layer_factory.hpp:77] Creating layer conv6_2_mbox_loc_flat
I0216 01:28:32.442176 32696 net.cpp:91] Creating Layer conv6_2_mbox_loc_flat
I0216 01:28:32.442181 32696 net.cpp:425] conv6_2_mbox_loc_flat <- conv6_2_mbox_loc_perm
I0216 01:28:32.442186 32696 net.cpp:399] conv6_2_mbox_loc_flat -> conv6_2_mbox_loc_flat
I0216 01:28:32.442211 32696 net.cpp:141] Setting up conv6_2_mbox_loc_flat
I0216 01:28:32.442219 32696 net.cpp:148] Top shape: 8 2280 (18240)
I0216 01:28:32.442221 32696 net.cpp:156] Memory required for data: 1989946240
I0216 01:28:32.442224 32696 layer_factory.hpp:77] Creating layer conv6_2_mbox_conf
I0216 01:28:32.442235 32696 net.cpp:91] Creating Layer conv6_2_mbox_conf
I0216 01:28:32.442239 32696 net.cpp:425] conv6_2_mbox_conf <- conv6_2_conv6_2_relu_0_split_2
I0216 01:28:32.442247 32696 net.cpp:399] conv6_2_mbox_conf -> conv6_2_mbox_conf
I0216 01:28:32.443322 32696 net.cpp:141] Setting up conv6_2_mbox_conf
I0216 01:28:32.443331 32696 net.cpp:148] Top shape: 8 24 5 19 (18240)
I0216 01:28:32.443334 32696 net.cpp:156] Memory required for data: 1990019200
I0216 01:28:32.443341 32696 layer_factory.hpp:77] Creating layer conv6_2_mbox_conf_perm
I0216 01:28:32.443359 32696 net.cpp:91] Creating Layer conv6_2_mbox_conf_perm
I0216 01:28:32.443363 32696 net.cpp:425] conv6_2_mbox_conf_perm <- conv6_2_mbox_conf
I0216 01:28:32.443372 32696 net.cpp:399] conv6_2_mbox_conf_perm -> conv6_2_mbox_conf_perm
I0216 01:28:32.443485 32696 net.cpp:141] Setting up conv6_2_mbox_conf_perm
I0216 01:28:32.443492 32696 net.cpp:148] Top shape: 8 5 19 24 (18240)
I0216 01:28:32.443495 32696 net.cpp:156] Memory required for data: 1990092160
I0216 01:28:32.443500 32696 layer_factory.hpp:77] Creating layer conv6_2_mbox_conf_flat
I0216 01:28:32.443506 32696 net.cpp:91] Creating Layer conv6_2_mbox_conf_flat
I0216 01:28:32.443509 32696 net.cpp:425] conv6_2_mbox_conf_flat <- conv6_2_mbox_conf_perm
I0216 01:28:32.443517 32696 net.cpp:399] conv6_2_mbox_conf_flat -> conv6_2_mbox_conf_flat
I0216 01:28:32.443539 32696 net.cpp:141] Setting up conv6_2_mbox_conf_flat
I0216 01:28:32.443547 32696 net.cpp:148] Top shape: 8 2280 (18240)
I0216 01:28:32.443549 32696 net.cpp:156] Memory required for data: 1990165120
I0216 01:28:32.443552 32696 layer_factory.hpp:77] Creating layer conv6_2_mbox_priorbox
I0216 01:28:32.443562 32696 net.cpp:91] Creating Layer conv6_2_mbox_priorbox
I0216 01:28:32.443565 32696 net.cpp:425] conv6_2_mbox_priorbox <- conv6_2_conv6_2_relu_0_split_3
I0216 01:28:32.443570 32696 net.cpp:425] conv6_2_mbox_priorbox <- data_data_0_split_3
I0216 01:28:32.443578 32696 net.cpp:399] conv6_2_mbox_priorbox -> conv6_2_mbox_priorbox
I0216 01:28:32.443604 32696 net.cpp:141] Setting up conv6_2_mbox_priorbox
I0216 01:28:32.443612 32696 net.cpp:148] Top shape: 1 2 2280 (4560)
I0216 01:28:32.443614 32696 net.cpp:156] Memory required for data: 1990183360
I0216 01:28:32.443617 32696 layer_factory.hpp:77] Creating layer conv7_2_mbox_loc
I0216 01:28:32.443632 32696 net.cpp:91] Creating Layer conv7_2_mbox_loc
I0216 01:28:32.443639 32696 net.cpp:425] conv7_2_mbox_loc <- conv7_2_conv7_2_relu_0_split_1
I0216 01:28:32.443645 32696 net.cpp:399] conv7_2_mbox_loc -> conv7_2_mbox_loc
I0216 01:28:32.444371 32696 net.cpp:141] Setting up conv7_2_mbox_loc
I0216 01:28:32.444380 32696 net.cpp:148] Top shape: 8 24 3 10 (5760)
I0216 01:28:32.444385 32696 net.cpp:156] Memory required for data: 1990206400
I0216 01:28:32.444391 32696 layer_factory.hpp:77] Creating layer conv7_2_mbox_loc_perm
I0216 01:28:32.444399 32696 net.cpp:91] Creating Layer conv7_2_mbox_loc_perm
I0216 01:28:32.444402 32696 net.cpp:425] conv7_2_mbox_loc_perm <- conv7_2_mbox_loc
I0216 01:28:32.444409 32696 net.cpp:399] conv7_2_mbox_loc_perm -> conv7_2_mbox_loc_perm
I0216 01:28:32.444519 32696 net.cpp:141] Setting up conv7_2_mbox_loc_perm
I0216 01:28:32.444526 32696 net.cpp:148] Top shape: 8 3 10 24 (5760)
I0216 01:28:32.444528 32696 net.cpp:156] Memory required for data: 1990229440
I0216 01:28:32.444533 32696 layer_factory.hpp:77] Creating layer conv7_2_mbox_loc_flat
I0216 01:28:32.444538 32696 net.cpp:91] Creating Layer conv7_2_mbox_loc_flat
I0216 01:28:32.444542 32696 net.cpp:425] conv7_2_mbox_loc_flat <- conv7_2_mbox_loc_perm
I0216 01:28:32.444550 32696 net.cpp:399] conv7_2_mbox_loc_flat -> conv7_2_mbox_loc_flat
I0216 01:28:32.444577 32696 net.cpp:141] Setting up conv7_2_mbox_loc_flat
I0216 01:28:32.444583 32696 net.cpp:148] Top shape: 8 720 (5760)
I0216 01:28:32.444586 32696 net.cpp:156] Memory required for data: 1990252480
I0216 01:28:32.444589 32696 layer_factory.hpp:77] Creating layer conv7_2_mbox_conf
I0216 01:28:32.444602 32696 net.cpp:91] Creating Layer conv7_2_mbox_conf
I0216 01:28:32.444607 32696 net.cpp:425] conv7_2_mbox_conf <- conv7_2_conv7_2_relu_0_split_2
I0216 01:28:32.444618 32696 net.cpp:399] conv7_2_mbox_conf -> conv7_2_mbox_conf
I0216 01:28:32.445324 32696 net.cpp:141] Setting up conv7_2_mbox_conf
I0216 01:28:32.445334 32696 net.cpp:148] Top shape: 8 24 3 10 (5760)
I0216 01:28:32.445338 32696 net.cpp:156] Memory required for data: 1990275520
I0216 01:28:32.445343 32696 layer_factory.hpp:77] Creating layer conv7_2_mbox_conf_perm
I0216 01:28:32.445353 32696 net.cpp:91] Creating Layer conv7_2_mbox_conf_perm
I0216 01:28:32.445368 32696 net.cpp:425] conv7_2_mbox_conf_perm <- conv7_2_mbox_conf
I0216 01:28:32.445376 32696 net.cpp:399] conv7_2_mbox_conf_perm -> conv7_2_mbox_conf_perm
I0216 01:28:32.445492 32696 net.cpp:141] Setting up conv7_2_mbox_conf_perm
I0216 01:28:32.445498 32696 net.cpp:148] Top shape: 8 3 10 24 (5760)
I0216 01:28:32.445502 32696 net.cpp:156] Memory required for data: 1990298560
I0216 01:28:32.445505 32696 layer_factory.hpp:77] Creating layer conv7_2_mbox_conf_flat
I0216 01:28:32.445513 32696 net.cpp:91] Creating Layer conv7_2_mbox_conf_flat
I0216 01:28:32.445516 32696 net.cpp:425] conv7_2_mbox_conf_flat <- conv7_2_mbox_conf_perm
I0216 01:28:32.445523 32696 net.cpp:399] conv7_2_mbox_conf_flat -> conv7_2_mbox_conf_flat
I0216 01:28:32.445549 32696 net.cpp:141] Setting up conv7_2_mbox_conf_flat
I0216 01:28:32.445554 32696 net.cpp:148] Top shape: 8 720 (5760)
I0216 01:28:32.445557 32696 net.cpp:156] Memory required for data: 1990321600
I0216 01:28:32.445561 32696 layer_factory.hpp:77] Creating layer conv7_2_mbox_priorbox
I0216 01:28:32.445569 32696 net.cpp:91] Creating Layer conv7_2_mbox_priorbox
I0216 01:28:32.445574 32696 net.cpp:425] conv7_2_mbox_priorbox <- conv7_2_conv7_2_relu_0_split_3
I0216 01:28:32.445577 32696 net.cpp:425] conv7_2_mbox_priorbox <- data_data_0_split_4
I0216 01:28:32.445585 32696 net.cpp:399] conv7_2_mbox_priorbox -> conv7_2_mbox_priorbox
I0216 01:28:32.445611 32696 net.cpp:141] Setting up conv7_2_mbox_priorbox
I0216 01:28:32.445617 32696 net.cpp:148] Top shape: 1 2 720 (1440)
I0216 01:28:32.445619 32696 net.cpp:156] Memory required for data: 1990327360
I0216 01:28:32.445623 32696 layer_factory.hpp:77] Creating layer conv8_2_mbox_loc
I0216 01:28:32.445634 32696 net.cpp:91] Creating Layer conv8_2_mbox_loc
I0216 01:28:32.445638 32696 net.cpp:425] conv8_2_mbox_loc <- conv8_2_conv8_2_relu_0_split_1
I0216 01:28:32.445647 32696 net.cpp:399] conv8_2_mbox_loc -> conv8_2_mbox_loc
I0216 01:28:32.446347 32696 net.cpp:141] Setting up conv8_2_mbox_loc
I0216 01:28:32.446358 32696 net.cpp:148] Top shape: 8 24 2 5 (1920)
I0216 01:28:32.446363 32696 net.cpp:156] Memory required for data: 1990335040
I0216 01:28:32.446373 32696 layer_factory.hpp:77] Creating layer conv8_2_mbox_loc_perm
I0216 01:28:32.446385 32696 net.cpp:91] Creating Layer conv8_2_mbox_loc_perm
I0216 01:28:32.446393 32696 net.cpp:425] conv8_2_mbox_loc_perm <- conv8_2_mbox_loc
I0216 01:28:32.446404 32696 net.cpp:399] conv8_2_mbox_loc_perm -> conv8_2_mbox_loc_perm
I0216 01:28:32.446535 32696 net.cpp:141] Setting up conv8_2_mbox_loc_perm
I0216 01:28:32.446547 32696 net.cpp:148] Top shape: 8 2 5 24 (1920)
I0216 01:28:32.446552 32696 net.cpp:156] Memory required for data: 1990342720
I0216 01:28:32.446557 32696 layer_factory.hpp:77] Creating layer conv8_2_mbox_loc_flat
I0216 01:28:32.446569 32696 net.cpp:91] Creating Layer conv8_2_mbox_loc_flat
I0216 01:28:32.446576 32696 net.cpp:425] conv8_2_mbox_loc_flat <- conv8_2_mbox_loc_perm
I0216 01:28:32.446588 32696 net.cpp:399] conv8_2_mbox_loc_flat -> conv8_2_mbox_loc_flat
I0216 01:28:32.446635 32696 net.cpp:141] Setting up conv8_2_mbox_loc_flat
I0216 01:28:32.446645 32696 net.cpp:148] Top shape: 8 240 (1920)
I0216 01:28:32.446651 32696 net.cpp:156] Memory required for data: 1990350400
I0216 01:28:32.446656 32696 layer_factory.hpp:77] Creating layer conv8_2_mbox_conf
I0216 01:28:32.446677 32696 net.cpp:91] Creating Layer conv8_2_mbox_conf
I0216 01:28:32.446684 32696 net.cpp:425] conv8_2_mbox_conf <- conv8_2_conv8_2_relu_0_split_2
I0216 01:28:32.446697 32696 net.cpp:399] conv8_2_mbox_conf -> conv8_2_mbox_conf
I0216 01:28:32.447911 32696 net.cpp:141] Setting up conv8_2_mbox_conf
I0216 01:28:32.447947 32696 net.cpp:148] Top shape: 8 24 2 5 (1920)
I0216 01:28:32.447964 32696 net.cpp:156] Memory required for data: 1990358080
I0216 01:28:32.447986 32696 layer_factory.hpp:77] Creating layer conv8_2_mbox_conf_perm
I0216 01:28:32.448007 32696 net.cpp:91] Creating Layer conv8_2_mbox_conf_perm
I0216 01:28:32.448027 32696 net.cpp:425] conv8_2_mbox_conf_perm <- conv8_2_mbox_conf
I0216 01:28:32.448065 32696 net.cpp:399] conv8_2_mbox_conf_perm -> conv8_2_mbox_conf_perm
I0216 01:28:32.448240 32696 net.cpp:141] Setting up conv8_2_mbox_conf_perm
I0216 01:28:32.448266 32696 net.cpp:148] Top shape: 8 2 5 24 (1920)
I0216 01:28:32.448281 32696 net.cpp:156] Memory required for data: 1990365760
I0216 01:28:32.448295 32696 layer_factory.hpp:77] Creating layer conv8_2_mbox_conf_flat
I0216 01:28:32.448317 32696 net.cpp:91] Creating Layer conv8_2_mbox_conf_flat
I0216 01:28:32.448333 32696 net.cpp:425] conv8_2_mbox_conf_flat <- conv8_2_mbox_conf_perm
I0216 01:28:32.448355 32696 net.cpp:399] conv8_2_mbox_conf_flat -> conv8_2_mbox_conf_flat
I0216 01:28:32.448405 32696 net.cpp:141] Setting up conv8_2_mbox_conf_flat
I0216 01:28:32.448431 32696 net.cpp:148] Top shape: 8 240 (1920)
I0216 01:28:32.448446 32696 net.cpp:156] Memory required for data: 1990373440
I0216 01:28:32.448460 32696 layer_factory.hpp:77] Creating layer conv8_2_mbox_priorbox
I0216 01:28:32.448482 32696 net.cpp:91] Creating Layer conv8_2_mbox_priorbox
I0216 01:28:32.448498 32696 net.cpp:425] conv8_2_mbox_priorbox <- conv8_2_conv8_2_relu_0_split_3
I0216 01:28:32.448515 32696 net.cpp:425] conv8_2_mbox_priorbox <- data_data_0_split_5
I0216 01:28:32.448539 32696 net.cpp:399] conv8_2_mbox_priorbox -> conv8_2_mbox_priorbox
I0216 01:28:32.448590 32696 net.cpp:141] Setting up conv8_2_mbox_priorbox
I0216 01:28:32.448616 32696 net.cpp:148] Top shape: 1 2 240 (480)
I0216 01:28:32.448631 32696 net.cpp:156] Memory required for data: 1990375360
I0216 01:28:32.448645 32696 layer_factory.hpp:77] Creating layer pool6_mbox_loc
I0216 01:28:32.448673 32696 net.cpp:91] Creating Layer pool6_mbox_loc
I0216 01:28:32.448691 32696 net.cpp:425] pool6_mbox_loc <- pool6_pool6_0_split_0
I0216 01:28:32.448712 32696 net.cpp:399] pool6_mbox_loc -> pool6_mbox_loc
I0216 01:28:32.451709 32696 net.cpp:141] Setting up pool6_mbox_loc
I0216 01:28:32.451727 32696 net.cpp:148] Top shape: 8 24 1 1 (192)
I0216 01:28:32.451730 32696 net.cpp:156] Memory required for data: 1990376128
I0216 01:28:32.451756 32696 layer_factory.hpp:77] Creating layer pool6_mbox_loc_perm
I0216 01:28:32.451768 32696 net.cpp:91] Creating Layer pool6_mbox_loc_perm
I0216 01:28:32.451776 32696 net.cpp:425] pool6_mbox_loc_perm <- pool6_mbox_loc
I0216 01:28:32.451784 32696 net.cpp:399] pool6_mbox_loc_perm -> pool6_mbox_loc_perm
I0216 01:28:32.451902 32696 net.cpp:141] Setting up pool6_mbox_loc_perm
I0216 01:28:32.451910 32696 net.cpp:148] Top shape: 8 1 1 24 (192)
I0216 01:28:32.451913 32696 net.cpp:156] Memory required for data: 1990376896
I0216 01:28:32.451920 32696 layer_factory.hpp:77] Creating layer pool6_mbox_loc_flat
I0216 01:28:32.451932 32696 net.cpp:91] Creating Layer pool6_mbox_loc_flat
I0216 01:28:32.451939 32696 net.cpp:425] pool6_mbox_loc_flat <- pool6_mbox_loc_perm
I0216 01:28:32.451949 32696 net.cpp:399] pool6_mbox_loc_flat -> pool6_mbox_loc_flat
I0216 01:28:32.451980 32696 net.cpp:141] Setting up pool6_mbox_loc_flat
I0216 01:28:32.451987 32696 net.cpp:148] Top shape: 8 24 (192)
I0216 01:28:32.451989 32696 net.cpp:156] Memory required for data: 1990377664
I0216 01:28:32.451993 32696 layer_factory.hpp:77] Creating layer pool6_mbox_conf
I0216 01:28:32.452013 32696 net.cpp:91] Creating Layer pool6_mbox_conf
I0216 01:28:32.452018 32696 net.cpp:425] pool6_mbox_conf <- pool6_pool6_0_split_1
I0216 01:28:32.452025 32696 net.cpp:399] pool6_mbox_conf -> pool6_mbox_conf
I0216 01:28:32.452738 32696 net.cpp:141] Setting up pool6_mbox_conf
I0216 01:28:32.452749 32696 net.cpp:148] Top shape: 8 24 1 1 (192)
I0216 01:28:32.452752 32696 net.cpp:156] Memory required for data: 1990378432
I0216 01:28:32.452759 32696 layer_factory.hpp:77] Creating layer pool6_mbox_conf_perm
I0216 01:28:32.452769 32696 net.cpp:91] Creating Layer pool6_mbox_conf_perm
I0216 01:28:32.452775 32696 net.cpp:425] pool6_mbox_conf_perm <- pool6_mbox_conf
I0216 01:28:32.452786 32696 net.cpp:399] pool6_mbox_conf_perm -> pool6_mbox_conf_perm
I0216 01:28:32.452903 32696 net.cpp:141] Setting up pool6_mbox_conf_perm
I0216 01:28:32.452910 32696 net.cpp:148] Top shape: 8 1 1 24 (192)
I0216 01:28:32.452932 32696 net.cpp:156] Memory required for data: 1990379200
I0216 01:28:32.452936 32696 layer_factory.hpp:77] Creating layer pool6_mbox_conf_flat
I0216 01:28:32.452941 32696 net.cpp:91] Creating Layer pool6_mbox_conf_flat
I0216 01:28:32.452945 32696 net.cpp:425] pool6_mbox_conf_flat <- pool6_mbox_conf_perm
I0216 01:28:32.452956 32696 net.cpp:399] pool6_mbox_conf_flat -> pool6_mbox_conf_flat
I0216 01:28:32.452999 32696 net.cpp:141] Setting up pool6_mbox_conf_flat
I0216 01:28:32.453008 32696 net.cpp:148] Top shape: 8 24 (192)
I0216 01:28:32.453011 32696 net.cpp:156] Memory required for data: 1990379968
I0216 01:28:32.453016 32696 layer_factory.hpp:77] Creating layer pool6_mbox_priorbox
I0216 01:28:32.453025 32696 net.cpp:91] Creating Layer pool6_mbox_priorbox
I0216 01:28:32.453033 32696 net.cpp:425] pool6_mbox_priorbox <- pool6_pool6_0_split_2
I0216 01:28:32.453039 32696 net.cpp:425] pool6_mbox_priorbox <- data_data_0_split_6
I0216 01:28:32.453057 32696 net.cpp:399] pool6_mbox_priorbox -> pool6_mbox_priorbox
I0216 01:28:32.453088 32696 net.cpp:141] Setting up pool6_mbox_priorbox
I0216 01:28:32.453096 32696 net.cpp:148] Top shape: 1 2 24 (48)
I0216 01:28:32.453099 32696 net.cpp:156] Memory required for data: 1990380160
I0216 01:28:32.453106 32696 layer_factory.hpp:77] Creating layer mbox_loc
I0216 01:28:32.453119 32696 net.cpp:91] Creating Layer mbox_loc
I0216 01:28:32.453125 32696 net.cpp:425] mbox_loc <- conv4_3_norm_mbox_loc_flat
I0216 01:28:32.453131 32696 net.cpp:425] mbox_loc <- fc7_mbox_loc_flat
I0216 01:28:32.453140 32696 net.cpp:425] mbox_loc <- conv6_2_mbox_loc_flat
I0216 01:28:32.453147 32696 net.cpp:425] mbox_loc <- conv7_2_mbox_loc_flat
I0216 01:28:32.453155 32696 net.cpp:425] mbox_loc <- conv8_2_mbox_loc_flat
I0216 01:28:32.453160 32696 net.cpp:425] mbox_loc <- pool6_mbox_loc_flat
I0216 01:28:32.453172 32696 net.cpp:399] mbox_loc -> mbox_loc
I0216 01:28:32.453207 32696 net.cpp:141] Setting up mbox_loc
I0216 01:28:32.453217 32696 net.cpp:148] Top shape: 8 29484 (235872)
I0216 01:28:32.453224 32696 net.cpp:156] Memory required for data: 1991323648
I0216 01:28:32.453229 32696 layer_factory.hpp:77] Creating layer mbox_conf
I0216 01:28:32.453239 32696 net.cpp:91] Creating Layer mbox_conf
I0216 01:28:32.453245 32696 net.cpp:425] mbox_conf <- conv4_3_norm_mbox_conf_flat
I0216 01:28:32.453254 32696 net.cpp:425] mbox_conf <- fc7_mbox_conf_flat
I0216 01:28:32.453261 32696 net.cpp:425] mbox_conf <- conv6_2_mbox_conf_flat
I0216 01:28:32.453271 32696 net.cpp:425] mbox_conf <- conv7_2_mbox_conf_flat
I0216 01:28:32.453275 32696 net.cpp:425] mbox_conf <- conv8_2_mbox_conf_flat
I0216 01:28:32.453282 32696 net.cpp:425] mbox_conf <- pool6_mbox_conf_flat
I0216 01:28:32.453294 32696 net.cpp:399] mbox_conf -> mbox_conf
I0216 01:28:32.453325 32696 net.cpp:141] Setting up mbox_conf
I0216 01:28:32.453332 32696 net.cpp:148] Top shape: 8 29484 (235872)
I0216 01:28:32.453336 32696 net.cpp:156] Memory required for data: 1992267136
I0216 01:28:32.453342 32696 layer_factory.hpp:77] Creating layer mbox_priorbox
I0216 01:28:32.453351 32696 net.cpp:91] Creating Layer mbox_priorbox
I0216 01:28:32.453356 32696 net.cpp:425] mbox_priorbox <- conv4_3_norm_mbox_priorbox
I0216 01:28:32.453364 32696 net.cpp:425] mbox_priorbox <- fc7_mbox_priorbox
I0216 01:28:32.453373 32696 net.cpp:425] mbox_priorbox <- conv6_2_mbox_priorbox
I0216 01:28:32.453377 32696 net.cpp:425] mbox_priorbox <- conv7_2_mbox_priorbox
I0216 01:28:32.453383 32696 net.cpp:425] mbox_priorbox <- conv8_2_mbox_priorbox
I0216 01:28:32.453390 32696 net.cpp:425] mbox_priorbox <- pool6_mbox_priorbox
I0216 01:28:32.453400 32696 net.cpp:399] mbox_priorbox -> mbox_priorbox
I0216 01:28:32.453431 32696 net.cpp:141] Setting up mbox_priorbox
I0216 01:28:32.453439 32696 net.cpp:148] Top shape: 1 2 29484 (58968)
I0216 01:28:32.453443 32696 net.cpp:156] Memory required for data: 1992503008
I0216 01:28:32.453449 32696 layer_factory.hpp:77] Creating layer mbox_loss
I0216 01:28:32.453464 32696 net.cpp:91] Creating Layer mbox_loss
I0216 01:28:32.453474 32696 net.cpp:425] mbox_loss <- mbox_loc
I0216 01:28:32.453493 32696 net.cpp:425] mbox_loss <- mbox_conf
I0216 01:28:32.453498 32696 net.cpp:425] mbox_loss <- mbox_priorbox
…
  type: "AnnotatedData"
  top: "data"
  top: "label"
  include {
    phase: TEST
  }
  transform_param {
    mean_value: 104
    mean_value: 117
    mean_value: 123
    resize_param {
      prob: 1
      resize_mode: WARP
      height: 150
      width: 600
      interp_mode: LINEAR
    }
  }
  data_param {
    source: "/home/perception/KITTI_SSD/examples/KITTI/KITTI_test_lmdb"
    batch_size: 1
    backend: LMDB
  }
  annotated_data_param {
    batch_sampler {
    }
    label_map_file: "/home/perception/KITTI_SSD//data/KITTI/labelmap_KITTI.prototxt"
  }
}
layer {
  name: "conv1_1"
  type: "Convolution"
  bottom: "data"
  top: "conv1_1"
  param {
    lr_mult: 0
    decay_mult: 0
  }
  param {
    lr_mult: 0
    decay_mult: 0
  }
  convolution_param {
    num_output: 64
    pad: 1
    kernel_size: 3
    weight_filler {
      type: "xavier"
    }
    bias_filler {
      type: "constant"
      value: 0
    }
  }
}
layer {
  name: "relu1_1"
  type: "ReLU"
  bottom: "conv1_1"
  top: "conv1_1"
}
layer {
  name: "conv1_2"
  type: "Convolution"
  bottom: "conv1_1"
  top: "conv1_2"
  param {
    lr_mult: 0
    decay_mult: 0
  }
  param {
    lr_mult: 0
    decay_mult: 0
  }
  convolution_param {
    num_output: 64
    pad: 1
    kernel_size: 3
    weight_filler {
      type: "xavier"
    }
    bias_filler {
      type: "constant"
      value: 0
    }
  }
}
layer {
  name: "relu1_2"
  type: "ReLU"
  bottom: "conv1_2"
  top: "conv1_2"
}
layer {
  name: "pool1"
  type: "Pooling"
  bottom: "conv1_2"
  top: "pool1"
  pooling_param {
    pool: MAX
    kernel_size: 2
    stride: 2
  }
}
layer {
  name: "conv2_1"
  type: "Convolution"
  bottom: "pool1"
  top: "conv2_1"
  param {
    lr_mult: 0
    decay_mult: 0
  }
  param {
    lr_mult: 0
    decay_mult: 0
  }
  convolution_param {
    num_output: 128
    pad: 1
    kernel_size: 3
    weight_filler {
      type: "xavier"
    }
    bias_filler {
      type: "constant"
      value: 0
    }
  }
}
layer {
  name: "relu2_1"
  type: "ReLU"
  bottom: "conv2_1"
  top: "conv2_1"
}
layer {
  name: "conv2_2"
  type: "Convolution"
  bottom: "conv2_1"
  top: "conv2_2"
  param {
    lr_mult: 0
    decay_mult: 0
  }
  param {
    lr_mult: 0
    decay_mult: 0
  }
  convolution_param {
    num_output: 128
    pad: 1
    kernel_size: 3
    weight_filler {
      type: "xavier"
    }
    bias_filler {
      type: "constant"
      value: 0
    }
  }
}
layer {
  name: "relu2_2"
  type: "ReLU"
  bottom: "conv2_2"
  top: "conv2_2"
}
layer {
  name: "pool2"
  type: "Pooling"
  bottom: "conv2_2"
  top: "pool2"
  pooling_param {
    pool: MAX
    kernel_size: 2
    stride: 2
  }
}
layer {
  name: "conv3_1"
  type: "Convolution"
  bottom: "pool2"
  top: "conv3_1"
  param {
    lr_mult: 1
    decay_mult: 1
  }
  param {
    lr_mult: 2
    decay_mult: 0
  }
  convolution_param {
    num_output: 256
    pad: 1
    kernel_size: 3
    weight_filler {
      type: "xavier"
    }
    bias_filler {
      type: "constant"
      value: 0
    }
  }
}
layer {
  name: "relu3_1"
  type: "ReLU"
  bottom: "conv3_1"
  top: "conv3_1"
}
layer {
  name: "conv3_2"
  type: "Convolution"
  bottom: "conv3_1"
  top: "conv3_2"
  param {
    lr_mult: 1
    decay_mult: 1
  }
  param {
    lr_mult: 2
    decay_mult: 0
  }
  convolution_param {
    num_output: 256
    pad: 1
    kernel_size: 3
    weight_filler {
      type: "xavier"
    }
    bias_filler {
      type: "constant"
      value: 0
    }
  }
}
layer {
  name: "relu3_2"
  type: "ReLU"
  bottom: "conv3_2"
  top: "conv3_2"
}
layer {
  name: "conv3_3"
  type: "Convolution"
  bottom: "conv3_2"
  top: "conv3_3"
  param {
    lr_mult: 1
    decay_mult: 1
  }
  param {
    lr_mult: 2
    decay_mult: 0
  }
  convolution_param {
    num_output: 256
    pad: 1
    kernel_size: 3
    weight_filler {
      type: "xavier"
    }
    bias_filler {
      type: "constant"
      value: 0
    }
  }
}
layer {
  name: "relu3_3"
  type: "ReLU"
  bottom: "conv3_3"
  top: "conv3_3"
}
layer {
  name: "pool3"
  type: "Pooling"
  bottom: "conv3_3"
  top: "pool3"
  pooling_param {
    pool: MAX
    kernel_size: 2
    stride: 2
  }
}
layer {
  name: "conv4_1"
  type: "Convolution"
  bottom: "pool3"
  top: "conv4_1"
  param {
    lr_mult: 1
    decay_mult: 1
  }
  param {
    lr_mult: 2
    decay_mult: 0
  }
  convolution_param {
    num_output: 512
    pad: 1
    kernel_size: 3
    weight_filler {
      type: "xavier"
    }
    bias_filler {
      type: "constant"
      value: 0
    }
  }
}
layer {
  name: "relu4_1"
  type: "ReLU"
  bottom: "conv4_1"
  top: "conv4_1"
}
layer {
  name: "conv4_2"
  type: "Convolution"
  bottom: "conv4_1"
  top: "conv4_2"
  param {
    lr_mult: 1
    decay_mult: 1
  }
  param {
    lr_mult: 2
    decay_mult: 0
  }
  convolution_param {
    num_output: 512
    pad: 1
    kernel_size: 3
    weight_filler {
      type: "xavier"
    }
    bias_filler {
      type: "constant"
      value: 0
    }
  }
}
layer {
  name: "relu4_2"
  type: "ReLU"
  bottom: "conv4_2"
  top: "conv4_2"
}
layer {
  name: "conv4_3"
  type: "Convolution"
  bottom: "conv4_2"
  top: "conv4_3"
  param {
    lr_mult: 1
    decay_mult: 1
  }
  param {
    lr_mult: 2
    decay_mult: 0
  }
  convolution_param {
    num_output: 512
    pad: 1
    kernel_size: 3
    weight_filler {
      type: "xavier"
    }
    bias_filler {
      type: "constant"
      value: 0
    }
  }
}
layer {
  name: "relu4_3"
  type: "ReLU"
  bottom: "conv4_3"
  top: "conv4_3"
}
layer {
  name: "pool4"
  type: "Pooling"
  bottom: "conv4_3"
  top: "pool4"
  pooling_param {
    pool: MAX
    kernel_size: 2
    stride: 2
  }
}
layer {
  name: "conv5_1"
  type: "Convolution"
  bottom: "pool4"
  top: "conv5_1"
  param {
    lr_mult: 1
    decay_mult: 1
  }
  param {
    lr_mult: 2
    decay_mult: 0
  }
  convolution_param {
    num_output: 512
    pad: 1
    kernel_size: 3
    weight_filler {
      type: "xavier"
    }
    bias_filler {
      type: "constant"
      value: 0
    }
  }
}
layer {
  name: "relu5_1"
  type: "ReLU"
  bottom: "conv5_1"
  top: "conv5_1"
}
layer {
  name: "conv5_2"
  type: "Convolution"
  bottom: "conv5_1"
  top: "conv5_2"
  param {
    lr_mult: 1
    decay_mult: 1
  }
  param {
    lr_mult: 2
    decay_mult: 0
  }
  convolution_param {
    num_output: 512
    pad: 1
    kernel_size: 3
    weight_filler {
      type: "xavier"
    }
    bias_filler {
      type: "constant"
      value: 0
    }
  }
}
layer {
  name: "relu5_2"
  type: "ReLU"
  bottom: "conv5_2"
  top: "conv5_2"
}
layer {
  name: "conv5_3"
  type: "Convolution"
  bottom: "conv5_2"
  top: "conv5_3"
  param {
    lr_mult: 1
    decay_mult: 1
  }
  param {
    lr_mult: 2
    decay_mult: 0
  }
  convolution_param {
    num_output: 512
    pad: 1
    kernel_size: 3
    weight_filler {
      type: "xavier"
    }
    bias_filler {
      type: "constant"
      value: 0
    }
  }
}
layer {
  name: "relu5_3"
  type: "ReLU"
  bottom: "conv5_3"
  top: "conv5_3"
}
layer {
  name: "pool5"
  type: "Pooling"
  bottom: "conv5_3"
  top: "pool5"
  pooling_param {
    pool: MAX
    kernel_size: 3
    stride: 1
    pad: 1
  }
}
layer {
  name: "fc6"
  type: "Convolution"
  bottom: "pool5"
  top: "fc6"
  param {
    lr_mult: 1
    decay_mult: 1
  }
  param {
    lr_mult: 2
    decay_mult: 0
  }
  convolution_param {
    num_output: 1024
    pad: 6
    kernel_size: 3
    weight_filler {
      type: "xavier"
    }
    bias_filler {
      type: "constant"
      value: 0
    }
    dilation: 6
  }
}
layer {
  name: "relu6"
  type: "ReLU"
  bottom: "fc6"
  top: "fc6"
}
layer {
  name: "fc7"
  type: "Convolution"
  bottom: "fc6"
  top: "fc7"
  param {
    lr_mult: 1
    decay_mult: 1
  }
  param {
    lr_mult: 2
    decay_mult: 0
  }
  convolution_param {
    num_output: 1024
    kernel_size: 1
    weight_filler {
      type: "xavier"
    }
    bias_filler {
      type: "constant"
      value: 0
    }
  }
}
layer {
  name: "relu7"
  type: "ReLU"
  bottom: "fc7"
  top: "fc7"
}
layer {
  name: "conv6_1"
  type: "Convolution"
  bottom: "fc7"
  top: "conv6_1"
  param {
    lr_mult: 1
    decay_mult: 1
  }
  param {
    lr_mult: 2
    decay_mult: 0
  }
  convolution_param {
    num_output: 256
    pad: 0
    kernel_size: 1
    stride: 1
    weight_filler {
      type: "xavier"
    }
    bias_filler {
      type: "constant"
      value: 0
    }
  }
}
layer {
  name: "conv6_1_relu"
  type: "ReLU"
  bottom: "conv6_1"
  top: "conv6_1"
}
layer {
  name: "conv6_2"
  type: "Convolution"
  bottom: "conv6_1"
  top: "conv6_2"
  param {
    lr_mult: 1
    decay_mult: 1
  }
  param {
    lr_mult: 2
    decay_mult: 0
  }
  convolution_param {
    num_output: 512
    pad: 1
    kernel_size: 3
    stride: 2
    weight_filler {
      type: "xavier"
    }
    bias_filler {
      type: "constant"
      value: 0
    }
  }
}
layer {
  name: "conv6_2_relu"
  type: "ReLU"
  bottom: "conv6_2"
  top: "conv6_2"
}
layer {
  name: "conv7_1"
  type: "Convolution"
  bottom: "conv6_2"
  top: "conv7_1"
  param {
    lr_mult: 1
    decay_mult: 1
  }
  param {
    lr_mult: 2
    decay_mult: 0
  }
  convolution_param {
    num_output: 128
    pad: 0
    kernel_size: 1
    stride: 1
    weight_filler {
      type: "xavier"
    }
    bias_filler {
      type: "constant"
      value: 0
    }
  }
}
layer {
  name: "conv7_1_relu"
  type: "ReLU"
  bottom: "conv7_1"
  top: "conv7_1"
}
layer {
  name: "conv7_2"
  type: "Convolution"
  bottom: "conv7_1"
  top: "conv7_2"
  param {
    lr_mult: 1
    decay_mult: 1
  }
  param {
    lr_mult: 2
    decay_mult: 0
  }
  convolution_param {
    num_output: 256
    pad: 1
    kernel_size: 3
    stride: 2
    weight_filler {
      type: "xavier"
    }
    bias_filler {
      type: "constant"
      value: 0
    }
  }
}
layer {
  name: "conv7_2_relu"
  type: "ReLU"
  bottom: "conv7_2"
  top: "conv7_2"
}
layer {
  name: "conv8_1"
  type: "Convolution"
  bottom: "conv7_2"
  top: "conv8_1"
  param {
    lr_mult: 1
    decay_mult: 1
  }
  param {
    lr_mult: 2
    decay_mult: 0
  }
  convolution_param {
    num_output: 128
    pad: 0
    kernel_size: 1
    stride: 1
    weight_filler {
      type: "xavier"
    }
    bias_filler {
      type: "constant"
      value: 0
    }
  }
}
layer {
  name: "conv8_1_relu"
  type: "ReLU"
  bottom: "conv8_1"
  top: "conv8_1"
}
layer {
  name: "conv8_2"
  type: "Convolution"
  bottom: "conv8_1"
  top: "conv8_2"
  param {
    lr_mult: 1
    decay_mult: 1
  }
  param {
    lr_mult: 2
    decay_mult: 0
  }
  convolution_param {
    num_output: 256
    pad: 1
    kernel_size: 3
    stride: 2
    weight_filler {
      type: "xavier"
    }
    bias_filler {
      type: "constant"
      value: 0
    }
  }
}
layer {
  name: "conv8_2_relu"
  type: "ReLU"
  bottom: "conv8_2"
  top: "conv8_2"
}
layer {
  name: "pool6"
  type: "Pooling"
  bottom: "conv8_2"
  top: "pool6"
  pooling_param {
    pool: AVE
    global_pooling: true
  }
}
layer {
  name: "conv4_3_norm"
  type: "Normalize"
  bottom: "conv4_3"
  top: "conv4_3_norm"
  norm_param {
    across_spatial: false
    scale_filler {
      type: "constant"
      value: 20
    }
    channel_shared: false
  }
}
layer {
  name: "conv4_3_norm_mbox_loc"
  type: "Convolution"
  bottom: "conv4_3_norm"
  top: "conv4_3_norm_mbox_loc"
  param {
    lr_mult: 1
    decay_mult: 1
  }
  param {
    lr_mult: 2
    decay_mult: 0
  }
  convolution_param {
    num_output: 12
    pad: 1
    kernel_size: 3
    stride: 1
    weight_filler {
      type: "xavier"
    }
    bias_filler {
      type: "constant"
      value: 0
    }
  }
}
layer {
  name: "conv4_3_norm_mbox_loc_perm"
  type: "Permute"
  bottom: "conv4_3_norm_mbox_loc"
  top: "conv4_3_norm_mbox_loc_perm"
  permute_param {
    order: 0
    order: 2
    order: 3
    order: 1
  }
}
layer {
  name: "conv4_3_norm_mbox_loc_flat"
  type: "Flatten"
  bottom: "conv4_3_norm_mbox_loc_perm"
  top: "conv4_3_norm_mbox_loc_flat"
  flatten_param {
    axis: 1
  }
}
layer {
  name: "conv4_3_norm_mbox_conf"
  type: "Convolution"
  bottom: "conv4_3_norm"
  top: "conv4_3_norm_mbox_conf"
  param {
    lr_mult: 1
    decay_mult: 1
  }
  param {
    lr_mult: 2
    decay_mult: 0
  }
  convolution_param {
    num_output: 12
    pad: 1
    kernel_size: 3
    stride: 1
    weight_filler {
      type: "xavier"
    }
    bias_filler {
      type: "constant"
      value: 0
    }
  }
}
layer {
  name: "conv4_3_norm_mbox_conf_perm"
  type: "Permute"
  bottom: "conv4_3_norm_mbox_conf"
  top: "conv4_3_norm_mbox_conf_perm"
  permute_param {
    order: 0
    order: 2
    order: 3
    order: 1
  }
}
layer {
  name: "conv4_3_norm_mbox_conf_flat"
  type: "Flatten"
  bottom: "conv4_3_norm_mbox_conf_perm"
  top: "conv4_3_norm_mbox_conf_flat"
  flatten_param {
    axis: 1
  }
}
layer {
  name: "conv4_3_norm_mbox_priorbox"
  type: "PriorBox"
  bottom: "conv4_3_norm"
  bottom: "data"
  top: "conv4_3_norm_mbox_priorbox"
  prior_box_param {
    min_size: 30
    aspect_ratio: 2
    flip: true
    clip: true
    variance: 0.1
    variance: 0.1
    variance: 0.2
    variance: 0.2
  }
}
layer {
  name: "fc7_mbox_loc"
  type: "Convolution"
  bottom: "fc7"
  top: "fc7_mbox_loc"
  param {
    lr_mult: 1
    decay_mult: 1
  }
  param {
    lr_mult: 2
    decay_mult: 0
  }
  convolution_param {
    num_output: 24
    pad: 1
    kernel_size: 3
    stride: 1
    weight_filler {
      type: "xavier"
    }
    bias_filler {
      type: "constant"
      value: 0
    }
  }
}
layer {
  name: "fc7_mbox_loc_perm"
  type: "Permute"
  bottom: "fc7_mbox_loc"
  top: "fc7_mbox_loc_perm"
  permute_param {
    order: 0
    order: 2
    order: 3
    order: 1
  }
}
layer {
  name: "fc7_mbox_loc_flat"
  type: "Flatten"
  bottom: "fc7_mbox_loc_perm"
  top: "fc7_mbox_loc_flat"
  flatten_param {
    axis: 1
  }
}
layer {
  name: "fc7_mbox_conf"
  type: "Convolution"
  bottom: "fc7"
  top: "fc7_mbox_conf"
  param {
    lr_mult: 1
    decay_mult: 1
  }
  param {
    lr_mult: 2
    decay_mult: 0
  }
  convolution_param {
    num_output: 24
    pad: 1
    kernel_size: 3
    stride: 1
    weight_filler {
      type: "xavier"
    }
    bias_filler {
      type: "constant"
      value: 0
    }
  }
}
layer {
  name: "fc7_mbox_conf_perm"
  type: "Permute"
  bottom: "fc7_mbox_conf"
  top: "fc7_mbox_conf_perm"
  permute_param {
    order: 0
    order: 2
    order: 3
    order: 1
  }
}
layer {
  name: "fc7_mbox_conf_flat"
  type: "Flatten"
  bottom: "fc7_mbox_conf_perm"
  top: "fc7_mbox_conf_flat"
  flatten_param {
    axis: 1
  }
}
layer {
  name: "fc7_mbox_priorbox"
  type: "PriorBox"
  bottom: "fc7"
  bottom: "data"
  top: "fc7_mbox_priorbox"
  prior_box_param {
    min_size: 60
    max_size: 114
    aspect_ratio: 2
    aspect_ratio: 3
    flip: true
    clip: true
    variance: 0.1
    variance: 0.1
    variance: 0.2
    variance: 0.2
  }
}
layer {
  name: "conv6_2_mbox_loc"
  type: "Convolution"
  bottom: "conv6_2"
  top: "conv6_2_mbox_loc"
  param {
    lr_mult: 1
    decay_mult: 1
  }
  param {
    lr_mult: 2
    decay_mult: 0
  }
  convolution_param {
    num_output: 24
    pad: 1
    kernel_size: 3
    stride: 1
    weight_filler {
      type: "xavier"
    }
    bias_filler {
      type: "constant"
      value: 0
    }
  }
}
layer {
  name: "conv6_2_mbox_loc_perm"
  type: "Permute"
  bottom: "conv6_2_mbox_loc"
  top: "conv6_2_mbox_loc_perm"
  permute_param {
    order: 0
    order: 2
    order: 3
    order: 1
  }
}
layer {
  name: "conv6_2_mbox_loc_flat"
  type: "Flatten"
  bottom: "conv6_2_mbox_loc_perm"
  top: "conv6_2_mbox_loc_flat"
  flatten_param {
    axis: 1
  }
}
layer {
  name: "conv6_2_mbox_conf"
  type: "Convolution"
  bottom: "conv6_2"
  top: "conv6_2_mbox_conf"
  param {
    lr_mult: 1
    decay_mult: 1
  }
  param {
    lr_mult: 2
    decay_mult: 0
  }
  convolution_param {
    num_output: 24
    pad: 1
    kernel_size: 3
    stride: 1
    weight_filler {
      type: "xavier"
    }
    bias_filler {
      type: "constant"
      value: 0
    }
  }
}
layer {
  name: "conv6_2_mbox_conf_perm"
  type: "Permute"
  bottom: "conv6_2_mbox_conf"
  top: "conv6_2_mbox_conf_perm"
  permute_param {
    order: 0
    order: 2
    order: 3
    order: 1
  }
}
layer {
  name: "conv6_2_mbox_conf_flat"
  type: "Flatten"
  bottom: "conv6_2_mbox_conf_perm"
  top: "conv6_2_mbox_conf_flat"
  flatten_param {
    axis: 1
  }
}
layer {
  name: "conv6_2_mbox_priorbox"
  type: "PriorBox"
  bottom: "conv6_2"
  bottom: "data"
  top: "conv6_2_mbox_priorbox"
  prior_box_param {
    min_size: 114
    max_size: 168
    aspect_ratio: 2
    aspect_ratio: 3
    flip: true
    clip: true
    variance: 0.1
    variance: 0.1
    variance: 0.2
    variance: 0.2
  }
}
layer {
  name: "conv7_2_mbox_loc"
  type: "Convolution"
  bottom: "conv7_2"
  top: "conv7_2_mbox_loc"
  param {
    lr_mult: 1
    decay_mult: 1
  }
  param {
    lr_mult: 2
    decay_mult: 0
  }
  convolution_param {
    num_output: 24
    pad: 1
    kernel_size: 3
    stride: 1
    weight_filler {
      type: "xavier"
    }
    bias_filler {
      type: "constant"
      value: 0
    }
  }
}
layer {
  name: "conv7_2_mbox_loc_perm"
  type: "Permute"
  bottom: "conv7_2_mbox_loc"
  top: "conv7_2_mbox_loc_perm"
  permute_param {
    order: 0
    order: 2
    order: 3
    order: 1
  }
}
layer {
  name: "conv7_2_mbox_loc_flat"
  type: "Flatten"
  bottom: "conv7_2_mbox_loc_perm"
  top: "conv7_2_mbox_loc_flat"
  flatten_param {
    axis: 1
  }
}
layer {
  name: "conv7_2_mbox_conf"
  type: "Convolution"
  bottom: "conv7_2"
  top: "conv7_2_mbox_conf"
  param {
    lr_mult: 1
    decay_mult: 1
  }
  param {
    lr_mult: 2
    decay_mult: 0
  }
  convolution_param {
    num_output: 24
    pad: 1
    kernel_size: 3
    stride: 1
    weight_filler {
      type: "xavier"
    }
    bias_filler {
      type: "constant"
      value: 0
    }
  }
}
layer {
  name: "conv7_2_mbox_conf_perm"
  type: "Permute"
  bottom: "conv7_2_mbox_conf"
  top: "conv7_2_mbox_conf_perm"
  permute_param {
    order: 0
    order: 2
    order: 3
    order: 1
  }
}
layer {
  name: "conv7_2_mbox_conf_flat"
  type: "Flatten"
  bottom: "conv7_2_mbox_conf_perm"
  top: "conv7_2_mbox_conf_flat"
  flatten_param {
    axis: 1
  }
}
layer {
  name: "conv7_2_mbox_priorbox"
  type: "PriorBox"
  bottom: "conv7_2"
  bottom: "data"
  top: "conv7_2_mbox_priorbox"
  prior_box_param {
    min_size: 168
    max_size: 222
    aspect_ratio: 2
    aspect_ratio: 3
    flip: true
    clip: true
    variance: 0.1
    variance: 0.1
    variance: 0.2
    variance: 0.2
  }
}
layer {
  name: "conv8_2_mbox_loc"
  type: "Convolution"
  bottom: "conv8_2"
  top: "conv8_2_mbox_loc"
  param {
    lr_mult: 1
    decay_mult: 1
  }
  param {
    lr_mult: 2
    decay_mult: 0
  }
  convolution_param {
    num_output: 24
    pad: 1
    kernel_size: 3
    stride: 1
    weight_filler {
      type: "xavier"
    }
    bias_filler {
      type: "constant"
      value: 0
    }
  }
}
layer {
  name: "conv8_2_mbox_loc_perm"
  type: "Permute"
  bottom: "conv8_2_mbox_loc"
  top: "conv8_2_mbox_loc_perm"
  permute_param {
    order: 0
    order: 2
    order: 3
    order: 1
  }
}
layer {
  name: "conv8_2_mbox_loc_flat"
  type: "Flatten"
  bottom: "conv8_2_mbox_loc_perm"
  top: "conv8_2_mbox_loc_flat"
  flatten_param {
    axis: 1
  }
}
layer {
  name: "conv8_2_mbox_conf"
  type: "Convolution"
  bottom: "conv8_2"
  top: "conv8_2_mbox_conf"
  param {
    lr_mult: 1
    decay_mult: 1
  }
  param {
    lr_mult: 2
    decay_mult: 0
  }
  convolution_param {
    num_output: 24
    pad: 1
    kernel_size: 3
    stride: 1
    weight_filler {
      type: "xavier"
    }
    bias_filler {
      type: "constant"
      value: 0
    }
  }
}
layer {
  name: "conv8_2_mbox_conf_perm"
  type: "Permute"
  bottom: "conv8_2_mbox_conf"
  top: "conv8_2_mbox_conf_perm"
  permute_param {
    order: 0
    order: 2
    order: 3
    order: 1
  }
}
layer {
  name: "conv8_2_mbox_conf_flat"
  type: "Flatten"
  bottom: "conv8_2_mbox_conf_perm"
  top: "conv8_2_mbox_conf_flat"
  flatten_param {
    axis: 1
  }
}
layer {
  name: "conv8_2_mbox_priorbox"
  type: "PriorBox"
  bottom: "conv8_2"
  bottom: "data"
  top: "conv8_2_mbox_priorbox"
  prior_box_param {
    min_size: 222
    max_size: 276
    aspect_ratio: 2
    aspect_ratio: 3
    flip: true
    clip: true
    variance: 0.1
    variance: 0.1
    variance: 0.2
    variance: 0.2
  }
}
layer {
  name: "pool6_mbox_loc"
  type: "Convolution"
  bottom: "pool6"
  top: "pool6_mbox_loc"
  param {
    lr_mult: 1
    decay_mult: 1
  }
  param {
    lr_mult: 2
    decay_mult: 0
  }
  convolution_param {
    num_output: 24
    pad: 1
    kernel_size: 3
    stride: 1
    weight_filler {
      type: "xavier"
    }
    bias_filler {
      type: "constant"
      value: 0
    }
  }
}
layer {
  name: "pool6_mbox_loc_perm"
  type: "Permute"
  bottom: "pool6_mbox_loc"
  top: "pool6_mbox_loc_perm"
  permute_param {
    order: 0
    order: 2
    order: 3
    order: 1
  }
}
layer {
  name: "pool6_mbox_loc_flat"
  type: "Flatten"
  bottom: "pool6_mbox_loc_perm"
  top: "pool6_mbox_loc_flat"
  flatten_param {
    axis: 1
  }
}
layer {
  name: "pool6_mbox_conf"
  type: "Convolution"
  bottom: "pool6"
  top: "pool6_mbox_conf"
  param {
    lr_mult: 1
    decay_mult: 1
  }
  param {
    lr_mult: 2
    decay_mult: 0
  }
  convolution_param {
    num_output: 24
    pad: 1
    kernel_size: 3
    stride: 1
    weight_filler {
      type: "xavier"
    }
    bias_filler {
      type: "constant"
      value: 0
    }
  }
}
layer {
  name: "pool6_mbox_conf_perm"
  type: "Permute"
  bottom: "pool6_mbox_conf"
  top: "pool6_mbox_conf_perm"
  permute_param {
    order: 0
    order: 2
    order: 3
    order: 1
  }
}
layer {
  name: "pool6_mbox_conf_flat"
  type: "Flatten"
  bottom: "pool6_mbox_conf_perm"
  top: "pool6_mbox_conf_flat"
  flatten_param {
    axis: 1
  }
}
layer {
  name: "pool6_mbox_priorbox"
  type: "PriorBox"
  bottom: "pool6"
  bottom: "data"
  top: "pool6_mbox_priorbox"
  prior_box_param {
    min_size: 276
    max_size: 330
    aspect_ratio: 2
    aspect_ratio: 3
    flip: true
    clip: true
    variance: 0.1
    variance: 0.1
    variance: 0.2
    variance: 0.2
  }
}
layer {
  name: "mbox_loc"
  type: "Concat"
  bottom: "conv4_3_norm_mbox_loc_flat"
  bottom: "fc7_mbox_loc_flat"
  bottom: "conv6_2_mbox_loc_flat"
  bottom: "conv7_2_mbox_loc_flat"
  bottom: "conv8_2_mbox_loc_flat"
  bottom: "pool6_mbox_loc_flat"
  top: "mbox_loc"
  concat_param {
    axis: 1
  }
}
layer {
  name: "mbox_conf"
  type: "Concat"
  bottom: "conv4_3_norm_mbox_conf_flat"
  bottom: "fc7_mbox_conf_flat"
  bottom: "conv6_2_mbox_conf_flat"
  bottom: "conv7_2_mbox_conf_flat"
  bottom: "conv8_2_mbox_conf_flat"
  bottom: "pool6_mbox_conf_flat"
  top: "mbox_conf"
  concat_param {
    axis: 1
  }
}
layer {
  name: "mbox_priorbox"
  type: "Concat"
  bottom: "conv4_3_norm_mbox_priorbox"
  bottom: "fc7_mbox_priorbox"
  bottom: "conv6_2_mbox_priorbox"
  bottom: "conv7_2_mbox_priorbox"
  bottom: "conv8_2_mbox_priorbox"
  bottom: "pool6_mbox_priorbox"
  top: "mbox_priorbox"
  concat_param {
    axis: 2
  }
}
layer {
  name: "mbox_conf_reshape"
  type: "Reshape"
  bottom: "mbox_conf"
  top: "mbox_conf_reshape"
  reshape_param {
    shape {
      dim: 0
      dim: -1
      dim: 4
    }
  }
}
layer {
  name: "mbox_conf_softmax"
  type: "Softmax"
  bottom: "mbox_conf_reshape"
  top: "mbox_conf_softmax"
  softmax_param {
    axis: 2
  }
}
layer {
  name: "mbox_conf_flatten"
  type: "Flatten"
  bottom: "mbox_conf_softmax"
  top: "mbox_conf_flatten"
  flatten_param {
    axis: 1
  }
}
layer {
  name: "detection_out"
  type: "DetectionOutput"
  bottom: "mbox_loc"
  bottom: "mbox_conf_flatten"
  bottom: "mbox_priorbox"
  top: "detection_out"
  include {
    phase: TEST
  }
  detection_output_param {
    num_classes: 4
    share_location: true
    background_label_id: 0
    nms_param {
      nms_threshold: 0.45
      top_k: 400
    }
    save_output_param {
      output_directory: "/home/perception/data/KITTI/results/KITTI/SSD_600x150/Main"
      output_name_prefix: "comp4_det_test_"
      output_format: "VOC"
      label_map_file: "/home/perception/KITTI_SSD//data/KITTI/labelmap_KITTI.prototxt"
      name_size_file: "/home/perception/KITTI_SSD//data/KITTI/test_name_size.txt"
      num_test_image: 7481
    }
    code_type: CENTER_SIZE
    keep_top_k: 200
    confidence_threshold: 0.01
  }
}
layer {
  name: "detection_eval"
  type: "DetectionEvaluate"
  bottom: "detection_out"
  bottom: "label"
  top: "detection_eval"
  include {
    phase: TEST
  }
  detection_evaluate_param {
    num_classes: 4
    background_label_id: 0
    overlap_threshold: 0.5
    evaluate_difficult_gt: false
    name_size_file: "/home/perception/KITTI_SSD//data/KITTI/test_name_size.txt"
  }
}
I0216 01:28:32.457350 32696 layer_factory.hpp:77] Creating layer data
I0216 01:28:32.457432 32696 net.cpp:91] Creating Layer data
I0216 01:28:32.457442 32696 net.cpp:399] data -> data
I0216 01:28:32.457459 32696 net.cpp:399] data -> label
I0216 01:28:32.466781 32707 db_lmdb.cpp:13] Jerry: openning source lmdb: /home/perception/KITTI_SSD/examples/KITTI/KITTI_test_lmdb
I0216 01:28:32.467026 32707 db_lmdb.cpp:39] Opened lmdb /home/perception/KITTI_SSD/examples/KITTI/KITTI_test_lmdb
I0216 01:28:32.485888 32696 annotated_data_layer.cpp:52] output data size: 1,3,150,600
I0216 01:28:32.495342 32696 net.cpp:141] Setting up data
I0216 01:28:32.495355 32696 net.cpp:148] Top shape: 1 3 150 600 (270000)
I0216 01:28:32.495360 32696 net.cpp:148] Top shape: 1 1 1 8 (8)
I0216 01:28:32.495363 32696 net.cpp:156] Memory required for data: 1080032
I0216 01:28:32.495368 32696 layer_factory.hpp:77] Creating layer data_data_0_split
I0216 01:28:32.495381 32696 net.cpp:91] Creating Layer data_data_0_split
I0216 01:28:32.495385 32696 net.cpp:425] data_data_0_split <- data
I0216 01:28:32.495393 32696 net.cpp:399] data_data_0_split -> data_data_0_split_0
I0216 01:28:32.495403 32696 net.cpp:399] data_data_0_split -> data_data_0_split_1
I0216 01:28:32.495409 32696 net.cpp:399] data_data_0_split -> data_data_0_split_2
I0216 01:28:32.495415 32696 net.cpp:399] data_data_0_split -> data_data_0_split_3
I0216 01:28:32.495422 32696 net.cpp:399] data_data_0_split -> data_data_0_split_4
I0216 01:28:32.495427 32696 net.cpp:399] data_data_0_split -> data_data_0_split_5
I0216 01:28:32.495432 32696 net.cpp:399] data_data_0_split -> data_data_0_split_6
I0216 01:28:32.495597 32696 net.cpp:141] Setting up data_data_0_split
I0216 01:28:32.495604 32696 net.cpp:148] Top shape: 1 3 150 600 (270000)
I0216 01:28:32.495609 32696 net.cpp:148] Top shape: 1 3 150 600 (270000)
I0216 01:28:32.495612 32696 net.cpp:148] Top shape: 1 3 150 600 (270000)
I0216 01:28:32.495615 32696 net.cpp:148] Top shape: 1 3 150 600 (270000)
I0216 01:28:32.495620 32696 net.cpp:148] Top shape: 1 3 150 600 (270000)
I0216 01:28:32.495640 32696 net.cpp:148] Top shape: 1 3 150 600 (270000)
I0216 01:28:32.495643 32696 net.cpp:148] Top shape: 1 3 150 600 (270000)
I0216 01:28:32.495645 32696 net.cpp:156] Memory required for data: 8640032
I0216 01:28:32.495649 32696 layer_factory.hpp:77] Creating layer conv1_1
I0216 01:28:32.495662 32696 net.cpp:91] Creating Layer conv1_1
I0216 01:28:32.495666 32696 net.cpp:425] conv1_1 <- data_data_0_split_0
I0216 01:28:32.495671 32696 net.cpp:399] conv1_1 -> conv1_1
I0216 01:28:32.496004 32696 net.cpp:141] Setting up conv1_1
I0216 01:28:32.496011 32696 net.cpp:148] Top shape: 1 64 150 600 (5760000)
I0216 01:28:32.496012 32696 net.cpp:156] Memory required for data: 31680032
I0216 01:28:32.496022 32696 layer_factory.hpp:77] Creating layer relu1_1
I0216 01:28:32.496029 32696 net.cpp:91] Creating Layer relu1_1
I0216 01:28:32.496031 32696 net.cpp:425] relu1_1 <- conv1_1
I0216 01:28:32.496037 32696 net.cpp:386] relu1_1 -> conv1_1 (in-place)
I0216 01:28:32.496042 32696 net.cpp:141] Setting up relu1_1
I0216 01:28:32.496045 32696 net.cpp:148] Top shape: 1 64 150 600 (5760000)
I0216 01:28:32.496047 32696 net.cpp:156] Memory required for data: 54720032
I0216 01:28:32.496050 32696 layer_factory.hpp:77] Creating layer conv1_2
I0216 01:28:32.496058 32696 net.cpp:91] Creating Layer conv1_2
I0216 01:28:32.496062 32696 net.cpp:425] conv1_2 <- conv1_1
I0216 01:28:32.496067 32696 net.cpp:399] conv1_2 -> conv1_2
I0216 01:28:32.496590 32696 net.cpp:141] Setting up conv1_2
I0216 01:28:32.496597 32696 net.cpp:148] Top shape: 1 64 150 600 (5760000)
I0216 01:28:32.496599 32696 net.cpp:156] Memory required for data: 77760032
I0216 01:28:32.496606 32696 layer_factory.hpp:77] Creating layer relu1_2
I0216 01:28:32.496610 32696 net.cpp:91] Creating Layer relu1_2
I0216 01:28:32.496613 32696 net.cpp:425] relu1_2 <- conv1_2
I0216 01:28:32.496618 32696 net.cpp:386] relu1_2 -> conv1_2 (in-place)
I0216 01:28:32.496623 32696 net.cpp:141] Setting up relu1_2
I0216 01:28:32.496626 32696 net.cpp:148] Top shape: 1 64 150 600 (5760000)
I0216 01:28:32.496629 32696 net.cpp:156] Memory required for data: 100800032
I0216 01:28:32.496632 32696 layer_factory.hpp:77] Creating layer pool1
I0216 01:28:32.496639 32696 net.cpp:91] Creating Layer pool1
I0216 01:28:32.496640 32696 net.cpp:425] pool1 <- conv1_2
I0216 01:28:32.496645 32696 net.cpp:399] pool1 -> pool1
I0216 01:28:32.496683 32696 net.cpp:141] Setting up pool1
I0216 01:28:32.496688 32696 net.cpp:148] Top shape: 1 64 75 300 (1440000)
I0216 01:28:32.496690 32696 net.cpp:156] Memory required for data: 106560032
I0216 01:28:32.496692 32696 layer_factory.hpp:77] Creating layer conv2_1
I0216 01:28:32.496701 32696 net.cpp:91] Creating Layer conv2_1
I0216 01:28:32.496703 32696 net.cpp:425] conv2_1 <- pool1
I0216 01:28:32.496707 32696 net.cpp:399] conv2_1 -> conv2_1
I0216 01:28:32.497387 32696 net.cpp:141] Setting up conv2_1
I0216 01:28:32.497393 32696 net.cpp:148] Top shape: 1 128 75 300 (2880000)
I0216 01:28:32.497396 32696 net.cpp:156] Memory required for data: 118080032
I0216 01:28:32.497403 32696 layer_factory.hpp:77] Creating layer relu2_1
I0216 01:28:32.497409 32696 net.cpp:91] Creating Layer relu2_1
I0216 01:28:32.497412 32696 net.cpp:425] relu2_1 <- conv2_1
I0216 01:28:32.497416 32696 net.cpp:386] relu2_1 -> conv2_1 (in-place)
I0216 01:28:32.497421 32696 net.cpp:141] Setting up relu2_1
I0216 01:28:32.497424 32696 net.cpp:148] Top shape: 1 128 75 300 (2880000)
I0216 01:28:32.497427 32696 net.cpp:156] Memory required for data: 129600032
I0216 01:28:32.497431 32696 layer_factory.hpp:77] Creating layer conv2_2
I0216 01:28:32.497437 32696 net.cpp:91] Creating Layer conv2_2
I0216 01:28:32.497439 32696 net.cpp:425] conv2_2 <- conv2_1
I0216 01:28:32.497445 32696 net.cpp:399] conv2_2 -> conv2_2
I0216 01:28:32.498574 32696 net.cpp:141] Setting up conv2_2
I0216 01:28:32.498579 32696 net.cpp:148] Top shape: 1 128 75 300 (2880000)
I0216 01:28:32.498582 32696 net.cpp:156] Memory required for data: 141120032
I0216 01:28:32.498589 32696 layer_factory.hpp:77] Creating layer relu2_2
I0216 01:28:32.498602 32696 net.cpp:91] Creating Layer relu2_2
I0216 01:28:32.498605 32696 net.cpp:425] relu2_2 <- conv2_2
I0216 01:28:32.498610 32696 net.cpp:386] relu2_2 -> conv2_2 (in-place)
I0216 01:28:32.498615 32696 net.cpp:141] Setting up relu2_2
I0216 01:28:32.498628 32696 net.cpp:148] Top shape: 1 128 75 300 (2880000)
I0216 01:28:32.498631 32696 net.cpp:156] Memory required for data: 152640032
I0216 01:28:32.498634 32696 layer_factory.hpp:77] Creating layer pool2
I0216 01:28:32.498639 32696 net.cpp:91] Creating Layer pool2
I0216 01:28:32.498642 32696 net.cpp:425] pool2 <- conv2_2
I0216 01:28:32.498646 32696 net.cpp:399] pool2 -> pool2
I0216 01:28:32.498682 32696 net.cpp:141] Setting up pool2
I0216 01:28:32.498687 32696 net.cpp:148] Top shape: 1 128 38 150 (729600)
I0216 01:28:32.498689 32696 net.cpp:156] Memory required for data: 155558432
I0216 01:28:32.498692 32696 layer_factory.hpp:77] Creating layer conv3_1
I0216 01:28:32.498699 32696 net.cpp:91] Creating Layer conv3_1
I0216 01:28:32.498703 32696 net.cpp:425] conv3_1 <- pool2
I0216 01:28:32.498708 32696 net.cpp:399] conv3_1 -> conv3_1
I0216 01:28:32.501974 32696 net.cpp:141] Setting up conv3_1
I0216 01:28:32.501988 32696 net.cpp:148] Top shape: 1 256 38 150 (1459200)
I0216 01:28:32.501992 32696 net.cpp:156] Memory required for data: 161395232
I0216 01:28:32.502002 32696 layer_factory.hpp:77] Creating layer relu3_1
I0216 01:28:32.502010 32696 net.cpp:91] Creating Layer relu3_1
I0216 01:28:32.502015 32696 net.cpp:425] relu3_1 <- conv3_1
I0216 01:28:32.502024 32696 net.cpp:386] relu3_1 -> conv3_1 (in-place)
I0216 01:28:32.502033 32696 net.cpp:141] Setting up relu3_1
I0216 01:28:32.502040 32696 net.cpp:148] Top shape: 1 256 38 150 (1459200)
I0216 01:28:32.502044 32696 net.cpp:156] Memory required for data: 167232032
I0216 01:28:32.502048 32696 layer_factory.hpp:77] Creating layer conv3_2
I0216 01:28:32.502058 32696 net.cpp:91] Creating Layer conv3_2
I0216 01:28:32.502063 32696 net.cpp:425] conv3_2 <- conv3_1
I0216 01:28:32.502073 32696 net.cpp:399] conv3_2 -> conv3_2
I0216 01:28:32.507221 32696 net.cpp:141] Setting up conv3_2
I0216 01:28:32.507237 32696 net.cpp:148] Top shape: 1 256 38 150 (1459200)
I0216 01:28:32.507242 32696 net.cpp:156] Memory required for data: 173068832
I0216 01:28:32.507252 32696 layer_factory.hpp:77] Creating layer relu3_2
I0216 01:28:32.507262 32696 net.cpp:91] Creating Layer relu3_2
I0216 01:28:32.507267 32696 net.cpp:425] relu3_2 <- conv3_2
I0216 01:28:32.507277 32696 net.cpp:386] relu3_2 -> conv3_2 (in-place)
I0216 01:28:32.507285 32696 net.cpp:141] Setting up relu3_2
I0216 01:28:32.507293 32696 net.cpp:148] Top shape: 1 256 38 150 (1459200)
I0216 01:28:32.507297 32696 net.cpp:156] Memory required for data: 178905632
I0216 01:28:32.507302 32696 layer_factory.hpp:77] Creating layer conv3_3
I0216 01:28:32.507316 32696 net.cpp:91] Creating Layer conv3_3
I0216 01:28:32.507330 32696 net.cpp:425] conv3_3 <- conv3_2
I0216 01:28:32.507339 32696 net.cpp:399] conv3_3 -> conv3_3
I0216 01:28:32.514569 32696 net.cpp:141] Setting up conv3_3
I0216 01:28:32.514585 32696 net.cpp:148] Top shape: 1 256 38 150 (1459200)
I0216 01:28:32.514591 32696 net.cpp:156] Memory required for data: 184742432
I0216 01:28:32.514600 32696 layer_factory.hpp:77] Creating layer relu3_3
I0216 01:28:32.514611 32696 net.cpp:91] Creating Layer relu3_3
I0216 01:28:32.514631 32696 net.cpp:425] relu3_3 <- conv3_3
I0216 01:28:32.514641 32696 net.cpp:386] relu3_3 -> conv3_3 (in-place)
I0216 01:28:32.514657 32696 net.cpp:141] Setting up relu3_3
I0216 01:28:32.514664 32696 net.cpp:148] Top shape: 1 256 38 150 (1459200)
I0216 01:28:32.514668 32696 net.cpp:156] Memory required for data: 190579232
I0216 01:28:32.514674 32696 layer_factory.hpp:77] Creating layer pool3
I0216 01:28:32.514683 32696 net.cpp:91] Creating Layer pool3
I0216 01:28:32.514688 32696 net.cpp:425] pool3 <- conv3_3
I0216 01:28:32.514696 32696 net.cpp:399] pool3 -> pool3
I0216 01:28:32.514744 32696 net.cpp:141] Setting up pool3
I0216 01:28:32.514770 32696 net.cpp:148] Top shape: 1 256 19 75 (364800)
I0216 01:28:32.514773 32696 net.cpp:156] Memory required for data: 192038432
I0216 01:28:32.514799 32696 layer_factory.hpp:77] Creating layer conv4_1
I0216 01:28:32.514816 32696 net.cpp:91] Creating Layer conv4_1
I0216 01:28:32.514822 32696 net.cpp:425] conv4_1 <- pool3
I0216 01:28:32.514832 32696 net.cpp:399] conv4_1 -> conv4_1
I0216 01:28:32.524835 32696 net.cpp:141] Setting up conv4_1
I0216 01:28:32.524853 32696 net.cpp:148] Top shape: 1 512 19 75 (729600)
I0216 01:28:32.524857 32696 net.cpp:156] Memory required for data: 194956832
I0216 01:28:32.524868 32696 layer_factory.hpp:77] Creating layer relu4_1
I0216 01:28:32.524878 32696 net.cpp:91] Creating Layer relu4_1
I0216 01:28:32.524883 32696 net.cpp:425] relu4_1 <- conv4_1
I0216 01:28:32.524891 32696 net.cpp:386] relu4_1 -> conv4_1 (in-place)
I0216 01:28:32.524900 32696 net.cpp:141] Setting up relu4_1
I0216 01:28:32.524907 32696 net.cpp:148] Top shape: 1 512 19 75 (729600)
I0216 01:28:32.524930 32696 net.cpp:156] Memory required for data: 197875232
I0216 01:28:32.524935 32696 layer_factory.hpp:77] Creating layer conv4_2
I0216 01:28:32.524948 32696 net.cpp:91] Creating Layer conv4_2
I0216 01:28:32.524953 32696 net.cpp:425] conv4_2 <- conv4_1
I0216 01:28:32.524963 32696 net.cpp:399] conv4_2 -> conv4_2
I0216 01:28:32.544020 32696 net.cpp:141] Setting up conv4_2
I0216 01:28:32.544049 32696 net.cpp:148] Top shape: 1 512 19 75 (729600)
I0216 01:28:32.544052 32696 net.cpp:156] Memory required for data: 200793632
I0216 01:28:32.544075 32696 layer_factory.hpp:77] Creating layer relu4_2
I0216 01:28:32.544090 32696 net.cpp:91] Creating Layer relu4_2
I0216 01:28:32.544096 32696 net.cpp:425] relu4_2 <- conv4_2
I0216 01:28:32.544106 32696 net.cpp:386] relu4_2 -> conv4_2 (in-place)
I0216 01:28:32.544121 32696 net.cpp:141] Setting up relu4_2
I0216 01:28:32.544142 32696 net.cpp:148] Top shape: 1 512 19 75 (729600)
I0216 01:28:32.544147 32696 net.cpp:156] Memory required for data: 203712032
I0216 01:28:32.544150 32696 layer_factory.hpp:77] Creating layer conv4_3
I0216 01:28:32.544167 32696 net.cpp:91] Creating Layer conv4_3
I0216 01:28:32.544179 32696 net.cpp:425] conv4_3 <- conv4_2
I0216 01:28:32.544189 32696 net.cpp:399] conv4_3 -> conv4_3
I0216 01:28:32.563349 32696 net.cpp:141] Setting up conv4_3
I0216 01:28:32.563383 32696 net.cpp:148] Top shape: 1 512 19 75 (729600)
I0216 01:28:32.563387 32696 net.cpp:156] Memory required for data: 206630432
I0216 01:28:32.563400 32696 layer_factory.hpp:77] Creating layer relu4_3
I0216 01:28:32.563413 32696 net.cpp:91] Creating Layer relu4_3
I0216 01:28:32.563421 32696 net.cpp:425] relu4_3 <- conv4_3
I0216 01:28:32.563431 32696 net.cpp:386] relu4_3 -> conv4_3 (in-place)
I0216 01:28:32.563443 32696 net.cpp:141] Setting up relu4_3
I0216 01:28:32.563451 32696 net.cpp:148] Top shape: 1 512 19 75 (729600)
I0216 01:28:32.563455 32696 net.cpp:156] Memory required for data: 209548832
I0216 01:28:32.563460 32696 layer_factory.hpp:77] Creating layer conv4_3_relu4_3_0_split
I0216 01:28:32.563469 32696 net.cpp:91] Creating Layer conv4_3_relu4_3_0_split
I0216 01:28:32.563474 32696 net.cpp:425] conv4_3_relu4_3_0_split <- conv4_3
I0216 01:28:32.563484 32696 net.cpp:399] conv4_3_relu4_3_0_split -> conv4_3_relu4_3_0_split_0
I0216 01:28:32.563495 32696 net.cpp:399] conv4_3_relu4_3_0_split -> conv4_3_relu4_3_0_split_1
I0216 01:28:32.563549 32696 net.cpp:141] Setting up conv4_3_relu4_3_0_split
I0216 01:28:32.563558 32696 net.cpp:148] Top shape: 1 512 19 75 (729600)
I0216 01:28:32.563565 32696 net.cpp:148] Top shape: 1 512 19 75 (729600)
I0216 01:28:32.563570 32696 net.cpp:156] Memory required for data: 215385632
I0216 01:28:32.563575 32696 layer_factory.hpp:77] Creating layer pool4
I0216 01:28:32.563585 32696 net.cpp:91] Creating Layer pool4
I0216 01:28:32.563591 32696 net.cpp:425] pool4 <- conv4_3_relu4_3_0_split_0
I0216 01:28:32.563599 32696 net.cpp:399] pool4 -> pool4
I0216 01:28:32.563647 32696 net.cpp:141] Setting up pool4
I0216 01:28:32.563655 32696 net.cpp:148] Top shape: 1 512 10 38 (194560)
I0216 01:28:32.563660 32696 net.cpp:156] Memory required for data: 216163872
I0216 01:28:32.563693 32696 layer_factory.hpp:77] Creating layer conv5_1
I0216 01:28:32.563709 32696 net.cpp:91] Creating Layer conv5_1
I0216 01:28:32.563715 32696 net.cpp:425] conv5_1 <- pool4
I0216 01:28:32.563726 32696 net.cpp:399] conv5_1 -> conv5_1
I0216 01:28:32.582691 32696 net.cpp:141] Setting up conv5_1
I0216 01:28:32.582741 32696 net.cpp:148] Top shape: 1 512 10 38 (194560)
I0216 01:28:32.582744 32696 net.cpp:156] Memory required for data: 216942112
I0216 01:28:32.582759 32696 layer_factory.hpp:77] Creating layer relu5_1
I0216 01:28:32.582773 32696 net.cpp:91] Creating Layer relu5_1
I0216 01:28:32.582780 32696 net.cpp:425] relu5_1 <- conv5_1
I0216 01:28:32.582792 32696 net.cpp:386] relu5_1 -> conv5_1 (in-place)
I0216 01:28:32.582806 32696 net.cpp:141] Setting up relu5_1
I0216 01:28:32.582813 32696 net.cpp:148] Top shape: 1 512 10 38 (194560)
I0216 01:28:32.582818 32696 net.cpp:156] Memory required for data: 217720352
I0216 01:28:32.582821 32696 layer_factory.hpp:77] Creating layer conv5_2
I0216 01:28:32.582839 32696 net.cpp:91] Creating Layer conv5_2
I0216 01:28:32.582842 32696 net.cpp:425] conv5_2 <- conv5_1
I0216 01:28:32.582851 32696 net.cpp:399] conv5_2 -> conv5_2
I0216 01:28:32.602061 32696 net.cpp:141] Setting up conv5_2
I0216 01:28:32.602094 32696 net.cpp:148] Top shape: 1 512 10 38 (194560)
I0216 01:28:32.602098 32696 net.cpp:156] Memory required for data: 218498592
I0216 01:28:32.602111 32696 layer_factory.hpp:77] Creating layer relu5_2
I0216 01:28:32.602125 32696 net.cpp:91] Creating Layer relu5_2
I0216 01:28:32.602133 32696 net.cpp:425] relu5_2 <- conv5_2
I0216 01:28:32.602144 32696 net.cpp:386] relu5_2 -> conv5_2 (in-place)
I0216 01:28:32.602156 32696 net.cpp:141] Setting up relu5_2
I0216 01:28:32.602164 32696 net.cpp:148] Top shape: 1 512 10 38 (194560)
I0216 01:28:32.602169 32696 net.cpp:156] Memory required for data: 219276832
I0216 01:28:32.602174 32696 layer_factory.hpp:77] Creating layer conv5_3
I0216 01:28:32.602190 32696 net.cpp:91] Creating Layer conv5_3
I0216 01:28:32.602195 32696 net.cpp:425] conv5_3 <- conv5_2
I0216 01:28:32.602205 32696 net.cpp:399] conv5_3 -> conv5_3
I0216 01:28:32.621531 32696 net.cpp:141] Setting up conv5_3
I0216 01:28:32.621565 32696 net.cpp:148] Top shape: 1 512 10 38 (194560)
I0216 01:28:32.621570 32696 net.cpp:156] Memory required for data: 220055072
I0216 01:28:32.621587 32696 layer_factory.hpp:77] Creating layer relu5_3
I0216 01:28:32.621610 32696 net.cpp:91] Creating Layer relu5_3
I0216 01:28:32.621618 32696 net.cpp:425] relu5_3 <- conv5_3
I0216 01:28:32.621628 32696 net.cpp:386] relu5_3 -> conv5_3 (in-place)
I0216 01:28:32.621642 32696 net.cpp:141] Setting up relu5_3
I0216 01:28:32.621664 32696 net.cpp:148] Top shape: 1 512 10 38 (194560)
I0216 01:28:32.621667 32696 net.cpp:156] Memory required for data: 220833312
I0216 01:28:32.621672 32696 layer_factory.hpp:77] Creating layer pool5
I0216 01:28:32.621685 32696 net.cpp:91] Creating Layer pool5
I0216 01:28:32.621690 32696 net.cpp:425] pool5 <- conv5_3
I0216 01:28:32.621696 32696 net.cpp:399] pool5 -> pool5
I0216 01:28:32.621748 32696 net.cpp:141] Setting up pool5
I0216 01:28:32.621757 32696 net.cpp:148] Top shape: 1 512 10 38 (194560)
I0216 01:28:32.621762 32696 net.cpp:156] Memory required for data: 221611552
I0216 01:28:32.621767 32696 layer_factory.hpp:77] Creating layer fc6
I0216 01:28:32.621783 32696 net.cpp:91] Creating Layer fc6
I0216 01:28:32.621796 32696 net.cpp:425] fc6 <- pool5
I0216 01:28:32.621807 32696 net.cpp:399] fc6 -> fc6
I0216 01:28:32.660733 32696 net.cpp:141] Setting up fc6
I0216 01:28:32.660776 32696 net.cpp:148] Top shape: 1 1024 10 38 (389120)
I0216 01:28:32.660782 32696 net.cpp:156] Memory required for data: 223168032
I0216 01:28:32.660796 32696 layer_factory.hpp:77] Creating layer relu6
I0216 01:28:32.660809 32696 net.cpp:91] Creating Layer relu6
I0216 01:28:32.660816 32696 net.cpp:425] relu6 <- fc6
I0216 01:28:32.660827 32696 net.cpp:386] relu6 -> fc6 (in-place)
I0216 01:28:32.660840 32696 net.cpp:141] Setting up relu6
I0216 01:28:32.660847 32696 net.cpp:148] Top shape: 1 1024 10 38 (389120)
I0216 01:28:32.660903 32696 net.cpp:156] Memory required for data: 224724512
I0216 01:28:32.660909 32696 layer_factory.hpp:77] Creating layer fc7
I0216 01:28:32.660928 32696 net.cpp:91] Creating Layer fc7
I0216 01:28:32.660938 32696 net.cpp:425] fc7 <- fc6
I0216 01:28:32.660948 32696 net.cpp:399] fc7 -> fc7
I0216 01:28:32.670055 32696 net.cpp:141] Setting up fc7
I0216 01:28:32.670090 32696 net.cpp:148] Top shape: 1 1024 10 38 (389120)
I0216 01:28:32.670095 32696 net.cpp:156] Memory required for data: 226280992
I0216 01:28:32.670109 32696 layer_factory.hpp:77] Creating layer relu7
I0216 01:28:32.670122 32696 net.cpp:91] Creating Layer relu7
I0216 01:28:32.670127 32696 net.cpp:425] relu7 <- fc7
I0216 01:28:32.670138 32696 net.cpp:386] relu7 -> fc7 (in-place)
I0216 01:28:32.670151 32696 net.cpp:141] Setting up relu7
I0216 01:28:32.670159 32696 net.cpp:148] Top shape: 1 1024 10 38 (389120)
I0216 01:28:32.670163 32696 net.cpp:156] Memory required for data: 227837472
I0216 01:28:32.670168 32696 layer_factory.hpp:77] Creating layer fc7_relu7_0_split
I0216 01:28:32.670179 32696 net.cpp:91] Creating Layer fc7_relu7_0_split
I0216 01:28:32.670186 32696 net.cpp:425] fc7_relu7_0_split <- fc7
I0216 01:28:32.670194 32696 net.cpp:399] fc7_relu7_0_split -> fc7_relu7_0_split_0
I0216 01:28:32.670207 32696 net.cpp:399] fc7_relu7_0_split -> fc7_relu7_0_split_1
I0216 01:28:32.670225 32696 net.cpp:399] fc7_relu7_0_split -> fc7_relu7_0_split_2
I0216 01:28:32.670254 32696 net.cpp:399] fc7_relu7_0_split -> fc7_relu7_0_split_3
I0216 01:28:32.670327 32696 net.cpp:141] Setting up fc7_relu7_0_split
I0216 01:28:32.670336 32696 net.cpp:148] Top shape: 1 1024 10 38 (389120)
I0216 01:28:32.670343 32696 net.cpp:148] Top shape: 1 1024 10 38 (389120)
I0216 01:28:32.670351 32696 net.cpp:148] Top shape: 1 1024 10 38 (389120)
I0216 01:28:32.670357 32696 net.cpp:148] Top shape: 1 1024 10 38 (389120)
I0216 01:28:32.670361 32696 net.cpp:156] Memory required for data: 234063392
I0216 01:28:32.670367 32696 layer_factory.hpp:77] Creating layer conv6_1
I0216 01:28:32.670384 32696 net.cpp:91] Creating Layer conv6_1
I0216 01:28:32.670397 32696 net.cpp:425] conv6_1 <- fc7_relu7_0_split_0
I0216 01:28:32.670408 32696 net.cpp:399] conv6_1 -> conv6_1
I0216 01:28:32.673921 32696 net.cpp:141] Setting up conv6_1
I0216 01:28:32.673940 32696 net.cpp:148] Top shape: 1 256 10 38 (97280)
I0216 01:28:32.673944 32696 net.cpp:156] Memory required for data: 234452512
I0216 01:28:32.673955 32696 layer_factory.hpp:77] Creating layer conv6_1_relu
I0216 01:28:32.673964 32696 net.cpp:91] Creating Layer conv6_1_relu
I0216 01:28:32.673970 32696 net.cpp:425] conv6_1_relu <- conv6_1
I0216 01:28:32.673979 32696 net.cpp:386] conv6_1_relu -> conv6_1 (in-place)
I0216 01:28:32.673990 32696 net.cpp:141] Setting up conv6_1_relu
I0216 01:28:32.673996 32696 net.cpp:148] Top shape: 1 256 10 38 (97280)
I0216 01:28:32.674001 32696 net.cpp:156] Memory required for data: 234841632
I0216 01:28:32.674006 32696 layer_factory.hpp:77] Creating layer conv6_2
I0216 01:28:32.674021 32696 net.cpp:91] Creating Layer conv6_2
I0216 01:28:32.674026 32696 net.cpp:425] conv6_2 <- conv6_1
I0216 01:28:32.674036 32696 net.cpp:399] conv6_2 -> conv6_2
I0216 01:28:32.684131 32696 net.cpp:141] Setting up conv6_2
I0216 01:28:32.684165 32696 net.cpp:148] Top shape: 1 512 5 19 (48640)
I0216 01:28:32.684170 32696 net.cpp:156] Memory required for data: 235036192
I0216 01:28:32.684195 32696 layer_factory.hpp:77] Creating layer conv6_2_relu
I0216 01:28:32.684208 32696 net.cpp:91] Creating Layer conv6_2_relu
I0216 01:28:32.684216 32696 net.cpp:425] conv6_2_relu <- conv6_2
I0216 01:28:32.684226 32696 net.cpp:386] conv6_2_relu -> conv6_2 (in-place)
I0216 01:28:32.684240 32696 net.cpp:141] Setting up conv6_2_relu
I0216 01:28:32.684247 32696 net.cpp:148] Top shape: 1 512 5 19 (48640)
I0216 01:28:32.684252 32696 net.cpp:156] Memory required for data: 235230752
I0216 01:28:32.684257 32696 layer_factory.hpp:77] Creating layer conv6_2_conv6_2_relu_0_split
I0216 01:28:32.684268 32696 net.cpp:91] Creating Layer conv6_2_conv6_2_relu_0_split
I0216 01:28:32.684299 32696 net.cpp:425] conv6_2_conv6_2_relu_0_split <- conv6_2
I0216 01:28:32.684309 32696 net.cpp:399] conv6_2_conv6_2_relu_0_split -> conv6_2_conv6_2_relu_0_split_0
I0216 01:28:32.684320 32696 net.cpp:399] conv6_2_conv6_2_relu_0_split -> conv6_2_conv6_2_relu_0_split_1
I0216 01:28:32.684332 32696 net.cpp:399] conv6_2_conv6_2_relu_0_split -> conv6_2_conv6_2_relu_0_split_2
I0216 01:28:32.684343 32696 net.cpp:399] conv6_2_conv6_2_relu_0_split -> conv6_2_conv6_2_relu_0_split_3
I0216 01:28:32.684422 32696 net.cpp:141] Setting up conv6_2_conv6_2_relu_0_split
I0216 01:28:32.684429 32696 net.cpp:148] Top shape: 1 512 5 19 (48640)
I0216 01:28:32.684437 32696 net.cpp:148] Top shape: 1 512 5 19 (48640)
I0216 01:28:32.684443 32696 net.cpp:148] Top shape: 1 512 5 19 (48640)
I0216 01:28:32.684449 32696 net.cpp:148] Top shape: 1 512 5 19 (48640)
I0216 01:28:32.684454 32696 net.cpp:156] Memory required for data: 236008992
I0216 01:28:32.684460 32696 layer_factory.hpp:77] Creating layer conv7_1
I0216 01:28:32.684476 32696 net.cpp:91] Creating Layer conv7_1
I0216 01:28:32.684481 32696 net.cpp:425] conv7_1 <- conv6_2_conv6_2_relu_0_split_0
I0216 01:28:32.684491 32696 net.cpp:399] conv7_1 -> conv7_1
I0216 01:28:32.685190 32696 net.cpp:141] Setting up conv7_1
I0216 01:28:32.685199 32696 net.cpp:148] Top shape: 1 128 5 19 (12160)
I0216 01:28:32.685204 32696 net.cpp:156] Memory required for data: 236057632
I0216 01:28:32.685211 32696 layer_factory.hpp:77] Creating layer conv7_1_relu
I0216 01:28:32.685221 32696 net.cpp:91] Creating Layer conv7_1_relu
I0216 01:28:32.685227 32696 net.cpp:425] conv7_1_relu <- conv7_1
I0216 01:28:32.685235 32696 net.cpp:386] conv7_1_relu -> conv7_1 (in-place)
I0216 01:28:32.685243 32696 net.cpp:141] Setting up conv7_1_relu
I0216 01:28:32.685252 32696 net.cpp:148] Top shape: 1 128 5 19 (12160)
I0216 01:28:32.685256 32696 net.cpp:156] Memory required for data: 236106272
I0216 01:28:32.685261 32696 layer_factory.hpp:77] Creating layer conv7_2
I0216 01:28:32.685271 32696 net.cpp:91] Creating Layer conv7_2
I0216 01:28:32.685277 32696 net.cpp:425] conv7_2 <- conv7_1
I0216 01:28:32.685286 32696 net.cpp:399] conv7_2 -> conv7_2
I0216 01:28:32.689021 32696 net.cpp:141] Setting up conv7_2
I0216 01:28:32.689044 32696 net.cpp:148] Top shape: 1 256 3 10 (7680)
I0216 01:28:32.689050 32696 net.cpp:156] Memory required for data: 236136992
I0216 01:28:32.689060 32696 layer_factory.hpp:77] Creating layer conv7_2_relu
I0216 01:28:32.689071 32696 net.cpp:91] Creating Layer conv7_2_relu
I0216 01:28:32.689079 32696 net.cpp:425] conv7_2_relu <- conv7_2
I0216 01:28:32.689088 32696 net.cpp:386] conv7_2_relu -> conv7_2 (in-place)
I0216 01:28:32.689100 32696 net.cpp:141] Setting up conv7_2_relu
I0216 01:28:32.689107 32696 net.cpp:148] Top shape: 1 256 3 10 (7680)
I0216 01:28:32.689112 32696 net.cpp:156] Memory required for data: 236167712
I0216 01:28:32.689118 32696 layer_factory.hpp:77] Creating layer conv7_2_conv7_2_relu_0_split
I0216 01:28:32.689128 32696 net.cpp:91] Creating Layer conv7_2_conv7_2_relu_0_split
I0216 01:28:32.689133 32696 net.cpp:425] conv7_2_conv7_2_relu_0_split <- conv7_2
I0216 01:28:32.689142 32696 net.cpp:399] conv7_2_conv7_2_relu_0_split -> conv7_2_conv7_2_relu_0_split_0
I0216 01:28:32.689155 32696 net.cpp:399] conv7_2_conv7_2_relu_0_split -> conv7_2_conv7_2_relu_0_split_1
I0216 01:28:32.689167 32696 net.cpp:399] conv7_2_conv7_2_relu_0_split -> conv7_2_conv7_2_relu_0_split_2
I0216 01:28:32.689177 32696 net.cpp:399] conv7_2_conv7_2_relu_0_split -> conv7_2_conv7_2_relu_0_split_3
I0216 01:28:32.689250 32696 net.cpp:141] Setting up conv7_2_conv7_2_relu_0_split
I0216 01:28:32.689260 32696 net.cpp:148] Top shape: 1 256 3 10 (7680)
I0216 01:28:32.689265 32696 net.cpp:148] Top shape: 1 256 3 10 (7680)
I0216 01:28:32.689270 32696 net.cpp:148] Top shape: 1 256 3 10 (7680)
I0216 01:28:32.689277 32696 net.cpp:148] Top shape: 1 256 3 10 (7680)
I0216 01:28:32.689283 32696 net.cpp:156] Memory required for data: 236290592
I0216 01:28:32.689288 32696 layer_factory.hpp:77] Creating layer conv8_1
I0216 01:28:32.689306 32696 net.cpp:91] Creating Layer conv8_1
I0216 01:28:32.689324 32696 net.cpp:425] conv8_1 <- conv7_2_conv7_2_relu_0_split_0
I0216 01:28:32.689337 32696 net.cpp:399] conv8_1 -> conv8_1
I0216 01:28:32.689808 32696 net.cpp:141] Setting up conv8_1
I0216 01:28:32.689817 32696 net.cpp:148] Top shape: 1 128 3 10 (3840)
I0216 01:28:32.689821 32696 net.cpp:156] Memory required for data: 236305952
I0216 01:28:32.689831 32696 layer_factory.hpp:77] Creating layer conv8_1_relu
I0216 01:28:32.689841 32696 net.cpp:91] Creating Layer conv8_1_relu
I0216 01:28:32.689846 32696 net.cpp:425] conv8_1_relu <- conv8_1
I0216 01:28:32.689853 32696 net.cpp:386] conv8_1_relu -> conv8_1 (in-place)
I0216 01:28:32.689863 32696 net.cpp:141] Setting up conv8_1_relu
I0216 01:28:32.689872 32696 net.cpp:148] Top shape: 1 128 3 10 (3840)
I0216 01:28:32.689877 32696 net.cpp:156] Memory required for data: 236321312
I0216 01:28:32.689882 32696 layer_factory.hpp:77] Creating layer conv8_2
I0216 01:28:32.689893 32696 net.cpp:91] Creating Layer conv8_2
I0216 01:28:32.689898 32696 net.cpp:425] conv8_2 <- conv8_1
I0216 01:28:32.689906 32696 net.cpp:399] conv8_2 -> conv8_2
I0216 01:28:32.693682 32696 net.cpp:141] Setting up conv8_2
I0216 01:28:32.693708 32696 net.cpp:148] Top shape: 1 256 2 5 (2560)
I0216 01:28:32.693712 32696 net.cpp:156] Memory required for data: 236331552
I0216 01:28:32.693723 32696 layer_factory.hpp:77] Creating layer conv8_2_relu
I0216 01:28:32.693733 32696 net.cpp:91] Creating Layer conv8_2_relu
I0216 01:28:32.693739 32696 net.cpp:425] conv8_2_relu <- conv8_2
I0216 01:28:32.693748 32696 net.cpp:386] conv8_2_relu -> conv8_2 (in-place)
I0216 01:28:32.693771 32696 net.cpp:141] Setting up conv8_2_relu
I0216 01:28:32.693778 32696 net.cpp:148] Top shape: 1 256 2 5 (2560)
I0216 01:28:32.693785 32696 net.cpp:156] Memory required for data: 236341792
I0216 01:28:32.693789 32696 layer_factory.hpp:77] Creating layer conv8_2_conv8_2_relu_0_split
I0216 01:28:32.693799 32696 net.cpp:91] Creating Layer conv8_2_conv8_2_relu_0_split
I0216 01:28:32.693805 32696 net.cpp:425] conv8_2_conv8_2_relu_0_split <- conv8_2
I0216 01:28:32.693815 32696 net.cpp:399] conv8_2_conv8_2_relu_0_split -> conv8_2_conv8_2_relu_0_split_0
I0216 01:28:32.693827 32696 net.cpp:399] conv8_2_conv8_2_relu_0_split -> conv8_2_conv8_2_relu_0_split_1
I0216 01:28:32.693838 32696 net.cpp:399] conv8_2_conv8_2_relu_0_split -> conv8_2_conv8_2_relu_0_split_2
I0216 01:28:32.693850 32696 net.cpp:399] conv8_2_conv8_2_relu_0_split -> conv8_2_conv8_2_relu_0_split_3
I0216 01:28:32.693925 32696 net.cpp:141] Setting up conv8_2_conv8_2_relu_0_split
I0216 01:28:32.693933 32696 net.cpp:148] Top shape: 1 256 2 5 (2560)
I0216 01:28:32.693939 32696 net.cpp:148] Top shape: 1 256 2 5 (2560)
I0216 01:28:32.693944 32696 net.cpp:148] Top shape: 1 256 2 5 (2560)
I0216 01:28:32.693953 32696 net.cpp:148] Top shape: 1 256 2 5 (2560)
I0216 01:28:32.693956 32696 net.cpp:156] Memory required for data: 236382752
I0216 01:28:32.693961 32696 layer_factory.hpp:77] Creating layer pool6
I0216 01:28:32.693972 32696 net.cpp:91] Creating Layer pool6
I0216 01:28:32.693979 32696 net.cpp:425] pool6 <- conv8_2_conv8_2_relu_0_split_0
I0216 01:28:32.693987 32696 net.cpp:399] pool6 -> pool6
I0216 01:28:32.694018 32696 net.cpp:141] Setting up pool6
I0216 01:28:32.694025 32696 net.cpp:148] Top shape: 1 256 1 1 (256)
I0216 01:28:32.694031 32696 net.cpp:156] Memory required for data: 236383776
I0216 01:28:32.694034 32696 layer_factory.hpp:77] Creating layer pool6_pool6_0_split
I0216 01:28:32.694043 32696 net.cpp:91] Creating Layer pool6_pool6_0_split
I0216 01:28:32.694049 32696 net.cpp:425] pool6_pool6_0_split <- pool6
I0216 01:28:32.694058 32696 net.cpp:399] pool6_pool6_0_split -> pool6_pool6_0_split_0
I0216 01:28:32.694069 32696 net.cpp:399] pool6_pool6_0_split -> pool6_pool6_0_split_1
I0216 01:28:32.694079 32696 net.cpp:399] pool6_pool6_0_split -> pool6_pool6_0_split_2
I0216 01:28:32.694131 32696 net.cpp:141] Setting up pool6_pool6_0_split
I0216 01:28:32.694139 32696 net.cpp:148] Top shape: 1 256 1 1 (256)
I0216 01:28:32.694144 32696 net.cpp:148] Top shape: 1 256 1 1 (256)
I0216 01:28:32.694165 32696 net.cpp:148] Top shape: 1 256 1 1 (256)
I0216 01:28:32.694169 32696 net.cpp:156] Memory required for data: 236386848
I0216 01:28:32.694175 32696 layer_factory.hpp:77] Creating layer conv4_3_norm
I0216 01:28:32.694186 32696 net.cpp:91] Creating Layer conv4_3_norm
I0216 01:28:32.694191 32696 net.cpp:425] conv4_3_norm <- conv4_3_relu4_3_0_split_1
I0216 01:28:32.694200 32696 net.cpp:399] conv4_3_norm -> conv4_3_norm
I0216 01:28:32.694376 32696 net.cpp:141] Setting up conv4_3_norm
I0216 01:28:32.694385 32696 net.cpp:148] Top shape: 1 512 19 75 (729600)
I0216 01:28:32.694388 32696 net.cpp:156] Memory required for data: 239305248
I0216 01:28:32.694396 32696 layer_factory.hpp:77] Creating layer conv4_3_norm_conv4_3_norm_0_split
I0216 01:28:32.694406 32696 net.cpp:91] Creating Layer conv4_3_norm_conv4_3_norm_0_split
I0216 01:28:32.694412 32696 net.cpp:425] conv4_3_norm_conv4_3_norm_0_split <- conv4_3_norm
I0216 01:28:32.694420 32696 net.cpp:399] conv4_3_norm_conv4_3_norm_0_split -> conv4_3_norm_conv4_3_norm_0_split_0
I0216 01:28:32.694432 32696 net.cpp:399] conv4_3_norm_conv4_3_norm_0_split -> conv4_3_norm_conv4_3_norm_0_split_1
I0216 01:28:32.694442 32696 net.cpp:399] conv4_3_norm_conv4_3_norm_0_split -> conv4_3_norm_conv4_3_norm_0_split_2
I0216 01:28:32.694497 32696 net.cpp:141] Setting up conv4_3_norm_conv4_3_norm_0_split
I0216 01:28:32.694504 32696 net.cpp:148] Top shape: 1 512 19 75 (729600)
I0216 01:28:32.694510 32696 net.cpp:148] Top shape: 1 512 19 75 (729600)
I0216 01:28:32.694519 32696 net.cpp:148] Top shape: 1 512 19 75 (729600)
I0216 01:28:32.694522 32696 net.cpp:156] Memory required for data: 248060448
I0216 01:28:32.694527 32696 layer_factory.hpp:77] Creating layer conv4_3_norm_mbox_loc
I0216 01:28:32.694540 32696 net.cpp:91] Creating Layer conv4_3_norm_mbox_loc
I0216 01:28:32.694546 32696 net.cpp:425] conv4_3_norm_mbox_loc <- conv4_3_norm_conv4_3_norm_0_split_0
I0216 01:28:32.694555 32696 net.cpp:399] conv4_3_norm_mbox_loc -> conv4_3_norm_mbox_loc
I0216 01:28:32.695191 32696 net.cpp:141] Setting up conv4_3_norm_mbox_loc
I0216 01:28:32.695201 32696 net.cpp:148] Top shape: 1 12 19 75 (17100)
I0216 01:28:32.695206 32696 net.cpp:156] Memory required for data: 248128848
I0216 01:28:32.695214 32696 layer_factory.hpp:77] Creating layer conv4_3_norm_mbox_loc_perm
I0216 01:28:32.695226 32696 net.cpp:91] Creating Layer conv4_3_norm_mbox_loc_perm
I0216 01:28:32.695232 32696 net.cpp:425] conv4_3_norm_mbox_loc_perm <- conv4_3_norm_mbox_loc
I0216 01:28:32.695242 32696 net.cpp:399] conv4_3_norm_mbox_loc_perm -> conv4_3_norm_mbox_loc_perm
I0216 01:28:32.695351 32696 net.cpp:141] Setting up conv4_3_norm_mbox_loc_perm
I0216 01:28:32.695359 32696 net.cpp:148] Top shape: 1 19 75 12 (17100)
I0216 01:28:32.695363 32696 net.cpp:156] Memory required for data: 248197248
I0216 01:28:32.695369 32696 layer_factory.hpp:77] Creating layer conv4_3_norm_mbox_loc_flat
I0216 01:28:32.695379 32696 net.cpp:91] Creating Layer conv4_3_norm_mbox_loc_flat
I0216 01:28:32.695384 32696 net.cpp:425] conv4_3_norm_mbox_loc_flat <- conv4_3_norm_mbox_loc_perm
I0216 01:28:32.695394 32696 net.cpp:399] conv4_3_norm_mbox_loc_flat -> conv4_3_norm_mbox_loc_flat
I0216 01:28:32.695425 32696 net.cpp:141] Setting up conv4_3_norm_mbox_loc_flat
I0216 01:28:32.695431 32696 net.cpp:148] Top shape: 1 17100 (17100)
I0216 01:28:32.695436 32696 net.cpp:156] Memory required for data: 248265648
I0216 01:28:32.695439 32696 layer_factory.hpp:77] Creating layer conv4_3_norm_mbox_conf
I0216 01:28:32.695454 32696 net.cpp:91] Creating Layer conv4_3_norm_mbox_conf
I0216 01:28:32.695459 32696 net.cpp:425] conv4_3_norm_mbox_conf <- conv4_3_norm_conv4_3_norm_0_split_1
I0216 01:28:32.695471 32696 net.cpp:399] conv4_3_norm_mbox_conf -> conv4_3_norm_mbox_conf
I0216 01:28:32.696096 32696 net.cpp:141] Setting up conv4_3_norm_mbox_conf
I0216 01:28:32.696107 32696 net.cpp:148] Top shape: 1 12 19 75 (17100)
I0216 01:28:32.696112 32696 net.cpp:156] Memory required for data: 248334048
I0216 01:28:32.696121 32696 layer_factory.hpp:77] Creating layer conv4_3_norm_mbox_conf_perm
I0216 01:28:32.696141 32696 net.cpp:91] Creating Layer conv4_3_norm_mbox_conf_perm
I0216 01:28:32.696149 32696 net.cpp:425] conv4_3_norm_mbox_conf_perm <- conv4_3_norm_mbox_conf
I0216 01:28:32.696158 32696 net.cpp:399] conv4_3_norm_mbox_conf_perm -> conv4_3_norm_mbox_conf_perm
I0216 01:28:32.696267 32696 net.cpp:141] Setting up conv4_3_norm_mbox_conf_perm
I0216 01:28:32.696275 32696 net.cpp:148] Top shape: 1 19 75 12 (17100)
I0216 01:28:32.696282 32696 net.cpp:156] Memory required for data: 248402448
I0216 01:28:32.696286 32696 layer_factory.hpp:77] Creating layer conv4_3_norm_mbox_conf_flat
I0216 01:28:32.696295 32696 net.cpp:91] Creating Layer conv4_3_norm_mbox_conf_flat
I0216 01:28:32.696301 32696 net.cpp:425] conv4_3_norm_mbox_conf_flat <- conv4_3_norm_mbox_conf_perm
I0216 01:28:32.696311 32696 net.cpp:399] conv4_3_norm_mbox_conf_flat -> conv4_3_norm_mbox_conf_flat
I0216 01:28:32.696341 32696 net.cpp:141] Setting up conv4_3_norm_mbox_conf_flat
I0216 01:28:32.696347 32696 net.cpp:148] Top shape: 1 17100 (17100)
I0216 01:28:32.696352 32696 net.cpp:156] Memory required for data: 248470848
I0216 01:28:32.696357 32696 layer_factory.hpp:77] Creating layer conv4_3_norm_mbox_priorbox
I0216 01:28:32.696378 32696 net.cpp:91] Creating Layer conv4_3_norm_mbox_priorbox
I0216 01:28:32.696383 32696 net.cpp:425] conv4_3_norm_mbox_priorbox <- conv4_3_norm_conv4_3_norm_0_split_2
I0216 01:28:32.696390 32696 net.cpp:425] conv4_3_norm_mbox_priorbox <- data_data_0_split_1
I0216 01:28:32.696400 32696 net.cpp:399] conv4_3_norm_mbox_priorbox -> conv4_3_norm_mbox_priorbox
I0216 01:28:32.696434 32696 net.cpp:141] Setting up conv4_3_norm_mbox_priorbox
I0216 01:28:32.696441 32696 net.cpp:148] Top shape: 1 2 17100 (34200)
I0216 01:28:32.696445 32696 net.cpp:156] Memory required for data: 248607648
I0216 01:28:32.696451 32696 layer_factory.hpp:77] Creating layer fc7_mbox_loc
I0216 01:28:32.696465 32696 net.cpp:91] Creating Layer fc7_mbox_loc
I0216 01:28:32.696471 32696 net.cpp:425] fc7_mbox_loc <- fc7_relu7_0_split_1
I0216 01:28:32.696480 32696 net.cpp:399] fc7_mbox_loc -> fc7_mbox_loc
I0216 01:28:32.698096 32696 net.cpp:141] Setting up fc7_mbox_loc
I0216 01:28:32.698104 32696 net.cpp:148] Top shape: 1 24 10 38 (9120)
I0216 01:28:32.698109 32696 net.cpp:156] Memory required for data: 248644128
I0216 01:28:32.698117 32696 layer_factory.hpp:77] Creating layer fc7_mbox_loc_perm
I0216 01:28:32.698127 32696 net.cpp:91] Creating Layer fc7_mbox_loc_perm
I0216 01:28:32.698130 32696 net.cpp:425] fc7_mbox_loc_perm <- fc7_mbox_loc
I0216 01:28:32.698139 32696 net.cpp:399] fc7_mbox_loc_perm -> fc7_mbox_loc_perm
I0216 01:28:32.698242 32696 net.cpp:141] Setting up fc7_mbox_loc_perm
I0216 01:28:32.698248 32696 net.cpp:148] Top shape: 1 10 38 24 (9120)
I0216 01:28:32.698251 32696 net.cpp:156] Memory required for data: 248680608
I0216 01:28:32.698253 32696 layer_factory.hpp:77] Creating layer fc7_mbox_loc_flat
I0216 01:28:32.698259 32696 net.cpp:91] Creating Layer fc7_mbox_loc_flat
I0216 01:28:32.698263 32696 net.cpp:425] fc7_mbox_loc_flat <- fc7_mbox_loc_perm
I0216 01:28:32.698268 32696 net.cpp:399] fc7_mbox_loc_flat -> fc7_mbox_loc_flat
I0216 01:28:32.698290 32696 net.cpp:141] Setting up fc7_mbox_loc_flat
I0216 01:28:32.698294 32696 net.cpp:148] Top shape: 1 9120 (9120)
I0216 01:28:32.698298 32696 net.cpp:156] Memory required for data: 248717088
I0216 01:28:32.698300 32696 layer_factory.hpp:77] Creating layer fc7_mbox_conf
I0216 01:28:32.698309 32696 net.cpp:91] Creating Layer fc7_mbox_conf
I0216 01:28:32.698312 32696 net.cpp:425] fc7_mbox_conf <- fc7_relu7_0_split_2
I0216 01:28:32.698319 32696 net.cpp:399] fc7_mbox_conf -> fc7_mbox_conf
I0216 01:28:32.700024 32696 net.cpp:141] Setting up fc7_mbox_conf
I0216 01:28:32.700034 32696 net.cpp:148] Top shape: 1 24 10 38 (9120)
I0216 01:28:32.700038 32696 net.cpp:156] Memory required for data: 248753568
I0216 01:28:32.700048 32696 layer_factory.hpp:77] Creating layer fc7_mbox_conf_perm
I0216 01:28:32.700060 32696 net.cpp:91] Creating Layer fc7_mbox_conf_perm
I0216 01:28:32.700067 32696 net.cpp:425] fc7_mbox_conf_perm <- fc7_mbox_conf
I0216 01:28:32.700088 32696 net.cpp:399] fc7_mbox_conf_perm -> fc7_mbox_conf_perm
I0216 01:28:32.700207 32696 net.cpp:141] Setting up fc7_mbox_conf_perm
I0216 01:28:32.700217 32696 net.cpp:148] Top shape: 1 10 38 24 (9120)
I0216 01:28:32.700220 32696 net.cpp:156] Memory required for data: 248790048
I0216 01:28:32.700225 32696 layer_factory.hpp:77] Creating layer fc7_mbox_conf_flat
I0216 01:28:32.700234 32696 net.cpp:91] Creating Layer fc7_mbox_conf_flat
I0216 01:28:32.700239 32696 net.cpp:425] fc7_mbox_conf_flat <- fc7_mbox_conf_perm
I0216 01:28:32.700248 32696 net.cpp:399] fc7_mbox_conf_flat -> fc7_mbox_conf_flat
I0216 01:28:32.700284 32696 net.cpp:141] Setting up fc7_mbox_conf_flat
I0216 01:28:32.700291 32696 net.cpp:148] Top shape: 1 9120 (9120)
I0216 01:28:32.700295 32696 net.cpp:156] Memory required for data: 248826528
I0216 01:28:32.700300 32696 layer_factory.hpp:77] Creating layer fc7_mbox_priorbox
I0216 01:28:32.700309 32696 net.cpp:91] Creating Layer fc7_mbox_priorbox
I0216 01:28:32.700315 32696 net.cpp:425] fc7_mbox_priorbox <- fc7_relu7_0_split_3
I0216 01:28:32.700322 32696 net.cpp:425] fc7_mbox_priorbox <- data_data_0_split_2
I0216 01:28:32.700331 32696 net.cpp:399] fc7_mbox_priorbox -> fc7_mbox_priorbox
I0216 01:28:32.700367 32696 net.cpp:141] Setting up fc7_mbox_priorbox
I0216 01:28:32.700376 32696 net.cpp:148] Top shape: 1 2 9120 (18240)
I0216 01:28:32.700381 32696 net.cpp:156] Memory required for data: 248899488
I0216 01:28:32.700386 32696 layer_factory.hpp:77] Creating layer conv6_2_mbox_loc
I0216 01:28:32.700399 32696 net.cpp:91] Creating Layer conv6_2_mbox_loc
I0216 01:28:32.700407 32696 net.cpp:425] conv6_2_mbox_loc <- conv6_2_conv6_2_relu_0_split_1
I0216 01:28:32.700417 32696 net.cpp:399] conv6_2_mbox_loc -> conv6_2_mbox_loc
I0216 01:28:32.701397 32696 net.cpp:141] Setting up conv6_2_mbox_loc
I0216 01:28:32.701406 32696 net.cpp:148] Top shape: 1 24 5 19 (2280)
I0216 01:28:32.701411 32696 net.cpp:156] Memory required for data: 248908608
I0216 01:28:32.701419 32696 layer_factory.hpp:77] Creating layer conv6_2_mbox_loc_perm
I0216 01:28:32.701431 32696 net.cpp:91] Creating Layer conv6_2_mbox_loc_perm
I0216 01:28:32.701437 32696 net.cpp:425] conv6_2_mbox_loc_perm <- conv6_2_mbox_loc
I0216 01:28:32.701447 32696 net.cpp:399] conv6_2_mbox_loc_perm -> conv6_2_mbox_loc_perm
I0216 01:28:32.701561 32696 net.cpp:141] Setting up conv6_2_mbox_loc_perm
I0216 01:28:32.701570 32696 net.cpp:148] Top shape: 1 5 19 24 (2280)
I0216 01:28:32.701573 32696 net.cpp:156] Memory required for data: 248917728
I0216 01:28:32.701580 32696 layer_factory.hpp:77] Creating layer conv6_2_mbox_loc_flat
I0216 01:28:32.701587 32696 net.cpp:91] Creating Layer conv6_2_mbox_loc_flat
I0216 01:28:32.701592 32696 net.cpp:425] conv6_2_mbox_loc_flat <- conv6_2_mbox_loc_perm
I0216 01:28:32.701601 32696 net.cpp:399] conv6_2_mbox_loc_flat -> conv6_2_mbox_loc_flat
I0216 01:28:32.701632 32696 net.cpp:141] Setting up conv6_2_mbox_loc_flat
I0216 01:28:32.701638 32696 net.cpp:148] Top shape: 1 2280 (2280)
I0216 01:28:32.701642 32696 net.cpp:156] Memory required for data: 248926848
I0216 01:28:32.701647 32696 layer_factory.hpp:77] Creating layer conv6_2_mbox_conf
I0216 01:28:32.701661 32696 net.cpp:91] Creating Layer conv6_2_mbox_conf
I0216 01:28:32.701666 32696 net.cpp:425] conv6_2_mbox_conf <- conv6_2_conv6_2_relu_0_split_2
I0216 01:28:32.701676 32696 net.cpp:399] conv6_2_mbox_conf -> conv6_2_mbox_conf
I0216 01:28:32.702656 32696 net.cpp:141] Setting up conv6_2_mbox_conf
I0216 01:28:32.702666 32696 net.cpp:148] Top shape: 1 24 5 19 (2280)
I0216 01:28:32.702671 32696 net.cpp:156] Memory required for data: 248935968
I0216 01:28:32.702679 32696 layer_factory.hpp:77] Creating layer conv6_2_mbox_conf_perm
I0216 01:28:32.702697 32696 net.cpp:91] Creating Layer conv6_2_mbox_conf_perm
I0216 01:28:32.702704 32696 net.cpp:425] conv6_2_mbox_conf_perm <- conv6_2_mbox_conf
I0216 01:28:32.702713 32696 net.cpp:399] conv6_2_mbox_conf_perm -> conv6_2_mbox_conf_perm
I0216 01:28:32.702824 32696 net.cpp:141] Setting up conv6_2_mbox_conf_perm
I0216 01:28:32.702841 32696 net.cpp:148] Top shape: 1 5 19 24 (2280)
I0216 01:28:32.702848 32696 net.cpp:156] Memory required for data: 248945088
I0216 01:28:32.702853 32696 layer_factory.hpp:77] Creating layer conv6_2_mbox_conf_flat
I0216 01:28:32.702862 32696 net.cpp:91] Creating Layer conv6_2_mbox_conf_flat
I0216 01:28:32.702867 32696 net.cpp:425] conv6_2_mbox_conf_flat <- conv6_2_mbox_conf_perm
I0216 01:28:32.702877 32696 net.cpp:399] conv6_2_mbox_conf_flat -> conv6_2_mbox_conf_flat
I0216 01:28:32.702908 32696 net.cpp:141] Setting up conv6_2_mbox_conf_flat
I0216 01:28:32.702914 32696 net.cpp:148] Top shape: 1 2280 (2280)
I0216 01:28:32.702917 32696 net.cpp:156] Memory required for data: 248954208
I0216 01:28:32.702924 32696 layer_factory.hpp:77] Creating layer conv6_2_mbox_priorbox
I0216 01:28:32.702934 32696 net.cpp:91] Creating Layer conv6_2_mbox_priorbox
I0216 01:28:32.702939 32696 net.cpp:425] conv6_2_mbox_priorbox <- conv6_2_conv6_2_relu_0_split_3
I0216 01:28:32.702945 32696 net.cpp:425] conv6_2_mbox_priorbox <- data_data_0_split_3
I0216 01:28:32.702957 32696 net.cpp:399] conv6_2_mbox_priorbox -> conv6_2_mbox_priorbox
I0216 01:28:32.702988 32696 net.cpp:141] Setting up conv6_2_mbox_priorbox
I0216 01:28:32.702996 32696 net.cpp:148] Top shape: 1 2 2280 (4560)
I0216 01:28:32.703001 32696 net.cpp:156] Memory required for data: 248972448
I0216 01:28:32.703006 32696 layer_factory.hpp:77] Creating layer conv7_2_mbox_loc
I0216 01:28:32.703018 32696 net.cpp:91] Creating Layer conv7_2_mbox_loc
I0216 01:28:32.703023 32696 net.cpp:425] conv7_2_mbox_loc <- conv7_2_conv7_2_relu_0_split_1
I0216 01:28:32.703033 32696 net.cpp:399] conv7_2_mbox_loc -> conv7_2_mbox_loc
I0216 01:28:32.703657 32696 net.cpp:141] Setting up conv7_2_mbox_loc
I0216 01:28:32.703666 32696 net.cpp:148] Top shape: 1 24 3 10 (720)
I0216 01:28:32.703670 32696 net.cpp:156] Memory required for data: 248975328
I0216 01:28:32.703678 32696 layer_factory.hpp:77] Creating layer conv7_2_mbox_loc_perm
I0216 01:28:32.703691 32696 net.cpp:91] Creating Layer conv7_2_mbox_loc_perm
I0216 01:28:32.703696 32696 net.cpp:425] conv7_2_mbox_loc_perm <- conv7_2_mbox_loc
I0216 01:28:32.703704 32696 net.cpp:399] conv7_2_mbox_loc_perm -> conv7_2_mbox_loc_perm
I0216 01:28:32.703814 32696 net.cpp:141] Setting up conv7_2_mbox_loc_perm
I0216 01:28:32.703822 32696 net.cpp:148] Top shape: 1 3 10 24 (720)
I0216 01:28:32.703826 32696 net.cpp:156] Memory required for data: 248978208
I0216 01:28:32.703830 32696 layer_factory.hpp:77] Creating layer conv7_2_mbox_loc_flat
I0216 01:28:32.703838 32696 net.cpp:91] Creating Layer conv7_2_mbox_loc_flat
I0216 01:28:32.703845 32696 net.cpp:425] conv7_2_mbox_loc_flat <- conv7_2_mbox_loc_perm
I0216 01:28:32.703855 32696 net.cpp:399] conv7_2_mbox_loc_flat -> conv7_2_mbox_loc_flat
I0216 01:28:32.703884 32696 net.cpp:141] Setting up conv7_2_mbox_loc_flat
I0216 01:28:32.703891 32696 net.cpp:148] Top shape: 1 720 (720)
I0216 01:28:32.703896 32696 net.cpp:156] Memory required for data: 248981088
I0216 01:28:32.703900 32696 layer_factory.hpp:77] Creating layer conv7_2_mbox_conf
I0216 01:28:32.703912 32696 net.cpp:91] Creating Layer conv7_2_mbox_conf
I0216 01:28:32.703917 32696 net.cpp:425] conv7_2_mbox_conf <- conv7_2_conv7_2_relu_0_split_2
I0216 01:28:32.703929 32696 net.cpp:399] conv7_2_mbox_conf -> conv7_2_mbox_conf
I0216 01:28:32.704546 32696 net.cpp:141] Setting up conv7_2_mbox_conf
I0216 01:28:32.704555 32696 net.cpp:148] Top shape: 1 24 3 10 (720)
I0216 01:28:32.704560 32696 net.cpp:156] Memory required for data: 248983968
I0216 01:28:32.704568 32696 layer_factory.hpp:77] Creating layer conv7_2_mbox_conf_perm
I0216 01:28:32.704579 32696 net.cpp:91] Creating Layer conv7_2_mbox_conf_perm
I0216 01:28:32.704586 32696 net.cpp:425] conv7_2_mbox_conf_perm <- conv7_2_mbox_conf
I0216 01:28:32.704594 32696 net.cpp:399] conv7_2_mbox_conf_perm -> conv7_2_mbox_conf_perm
I0216 01:28:32.704704 32696 net.cpp:141] Setting up conv7_2_mbox_conf_perm
I0216 01:28:32.704711 32696 net.cpp:148] Top shape: 1 3 10 24 (720)
I0216 01:28:32.704715 32696 net.cpp:156] Memory required for data: 248986848
I0216 01:28:32.704730 32696 layer_factory.hpp:77] Creating layer conv7_2_mbox_conf_flat
I0216 01:28:32.704741 32696 net.cpp:91] Creating Layer conv7_2_mbox_conf_flat
I0216 01:28:32.704746 32696 net.cpp:425] conv7_2_mbox_conf_flat <- conv7_2_mbox_conf_perm
I0216 01:28:32.704756 32696 net.cpp:399] conv7_2_mbox_conf_flat -> conv7_2_mbox_conf_flat
I0216 01:28:32.704788 32696 net.cpp:141] Setting up conv7_2_mbox_conf_flat
I0216 01:28:32.704797 32696 net.cpp:148] Top shape: 1 720 (720)
I0216 01:28:32.704800 32696 net.cpp:156] Memory required for data: 248989728
I0216 01:28:32.704805 32696 layer_factory.hpp:77] Creating layer conv7_2_mbox_priorbox
I0216 01:28:32.704815 32696 net.cpp:91] Creating Layer conv7_2_mbox_priorbox
I0216 01:28:32.704821 32696 net.cpp:425] conv7_2_mbox_priorbox <- conv7_2_conv7_2_relu_0_split_3
I0216 01:28:32.704828 32696 net.cpp:425] conv7_2_mbox_priorbox <- data_data_0_split_4
I0216 01:28:32.704838 32696 net.cpp:399] conv7_2_mbox_priorbox -> conv7_2_mbox_priorbox
I0216 01:28:32.704874 32696 net.cpp:141] Setting up conv7_2_mbox_priorbox
I0216 01:28:32.704880 32696 net.cpp:148] Top shape: 1 2 720 (1440)
I0216 01:28:32.704885 32696 net.cpp:156] Memory required for data: 248995488
I0216 01:28:32.704888 32696 layer_factory.hpp:77] Creating layer conv8_2_mbox_loc
I0216 01:28:32.704902 32696 net.cpp:91] Creating Layer conv8_2_mbox_loc
I0216 01:28:32.704908 32696 net.cpp:425] conv8_2_mbox_loc <- conv8_2_conv8_2_relu_0_split_1
I0216 01:28:32.704919 32696 net.cpp:399] conv8_2_mbox_loc -> conv8_2_mbox_loc
I0216 01:28:32.706933 32696 net.cpp:141] Setting up conv8_2_mbox_loc
I0216 01:28:32.706953 32696 net.cpp:148] Top shape: 1 24 2 5 (240)
I0216 01:28:32.706956 32696 net.cpp:156] Memory required for data: 248996448
I0216 01:28:32.706966 32696 layer_factory.hpp:77] Creating layer conv8_2_mbox_loc_perm
I0216 01:28:32.706979 32696 net.cpp:91] Creating Layer conv8_2_mbox_loc_perm
I0216 01:28:32.706986 32696 net.cpp:425] conv8_2_mbox_loc_perm <- conv8_2_mbox_loc
I0216 01:28:32.707000 32696 net.cpp:399] conv8_2_mbox_loc_perm -> conv8_2_mbox_loc_perm
I0216 01:28:32.707115 32696 net.cpp:141] Setting up conv8_2_mbox_loc_perm
I0216 01:28:32.707123 32696 net.cpp:148] Top shape: 1 2 5 24 (240)
I0216 01:28:32.707128 32696 net.cpp:156] Memory required for data: 248997408
I0216 01:28:32.707132 32696 layer_factory.hpp:77] Creating layer conv8_2_mbox_loc_flat
I0216 01:28:32.707141 32696 net.cpp:91] Creating Layer conv8_2_mbox_loc_flat
I0216 01:28:32.707147 32696 net.cpp:425] conv8_2_mbox_loc_flat <- conv8_2_mbox_loc_perm
I0216 01:28:32.707156 32696 net.cpp:399] conv8_2_mbox_loc_flat -> conv8_2_mbox_loc_flat
I0216 01:28:32.707188 32696 net.cpp:141] Setting up conv8_2_mbox_loc_flat
I0216 01:28:32.707195 32696 net.cpp:148] Top shape: 1 240 (240)
I0216 01:28:32.707198 32696 net.cpp:156] Memory required for data: 248998368
I0216 01:28:32.707203 32696 layer_factory.hpp:77] Creating layer conv8_2_mbox_conf
I0216 01:28:32.707218 32696 net.cpp:91] Creating Layer conv8_2_mbox_conf
I0216 01:28:32.707223 32696 net.cpp:425] conv8_2_mbox_conf <- conv8_2_conv8_2_relu_0_split_2
I0216 01:28:32.707234 32696 net.cpp:399] conv8_2_mbox_conf -> conv8_2_mbox_conf
I0216 01:28:32.707837 32696 net.cpp:141] Setting up conv8_2_mbox_conf
I0216 01:28:32.707849 32696 net.cpp:148] Top shape: 1 24 2 5 (240)
I0216 01:28:32.707851 32696 net.cpp:156] Memory required for data: 248999328
I0216 01:28:32.707860 32696 layer_factory.hpp:77] Creating layer conv8_2_mbox_conf_perm
I0216 01:28:32.707871 32696 net.cpp:91] Creating Layer conv8_2_mbox_conf_perm
I0216 01:28:32.707878 32696 net.cpp:425] conv8_2_mbox_conf_perm <- conv8_2_mbox_conf
I0216 01:28:32.707887 32696 net.cpp:399] conv8_2_mbox_conf_perm -> conv8_2_mbox_conf_perm
I0216 01:28:32.707996 32696 net.cpp:141] Setting up conv8_2_mbox_conf_perm
I0216 01:28:32.708004 32696 net.cpp:148] Top shape: 1 2 5 24 (240)
I0216 01:28:32.708009 32696 net.cpp:156] Memory required for data: 249000288
I0216 01:28:32.708014 32696 layer_factory.hpp:77] Creating layer conv8_2_mbox_conf_flat
I0216 01:28:32.708021 32696 net.cpp:91] Creating Layer conv8_2_mbox_conf_flat
I0216 01:28:32.708045 32696 net.cpp:425] conv8_2_mbox_conf_flat <- conv8_2_mbox_conf_perm
I0216 01:28:32.708055 32696 net.cpp:399] conv8_2_mbox_conf_flat -> conv8_2_mbox_conf_flat
I0216 01:28:32.708087 32696 net.cpp:141] Setting up conv8_2_mbox_conf_flat
I0216 01:28:32.708093 32696 net.cpp:148] Top shape: 1 240 (240)
I0216 01:28:32.708097 32696 net.cpp:156] Memory required for data: 249001248
I0216 01:28:32.708103 32696 layer_factory.hpp:77] Creating layer conv8_2_mbox_priorbox
I0216 01:28:32.708115 32696 net.cpp:91] Creating Layer conv8_2_mbox_priorbox
I0216 01:28:32.708122 32696 net.cpp:425] conv8_2_mbox_priorbox <- conv8_2_conv8_2_relu_0_split_3
I0216 01:28:32.708127 32696 net.cpp:425] conv8_2_mbox_priorbox <- data_data_0_split_5
I0216 01:28:32.708139 32696 net.cpp:399] conv8_2_mbox_priorbox -> conv8_2_mbox_priorbox
I0216 01:28:32.708173 32696 net.cpp:141] Setting up conv8_2_mbox_priorbox
I0216 01:28:32.708179 32696 net.cpp:148] Top shape: 1 2 240 (480)
I0216 01:28:32.708184 32696 net.cpp:156] Memory required for data: 249003168
I0216 01:28:32.708189 32696 layer_factory.hpp:77] Creating layer pool6_mbox_loc
I0216 01:28:32.708201 32696 net.cpp:91] Creating Layer pool6_mbox_loc
I0216 01:28:32.708207 32696 net.cpp:425] pool6_mbox_loc <- pool6_pool6_0_split_0
I0216 01:28:32.708217 32696 net.cpp:399] pool6_mbox_loc -> pool6_mbox_loc
I0216 01:28:32.708832 32696 net.cpp:141] Setting up pool6_mbox_loc
I0216 01:28:32.708839 32696 net.cpp:148] Top shape: 1 24 1 1 (24)
I0216 01:28:32.708843 32696 net.cpp:156] Memory required for data: 249003264
I0216 01:28:32.708863 32696 layer_factory.hpp:77] Creating layer pool6_mbox_loc_perm
I0216 01:28:32.708874 32696 net.cpp:91] Creating Layer pool6_mbox_loc_perm
I0216 01:28:32.708880 32696 net.cpp:425] pool6_mbox_loc_perm <- pool6_mbox_loc
I0216 01:28:32.708889 32696 net.cpp:399] pool6_mbox_loc_perm -> pool6_mbox_loc_perm
I0216 01:28:32.708997 32696 net.cpp:141] Setting up pool6_mbox_loc_perm
I0216 01:28:32.709004 32696 net.cpp:148] Top shape: 1 1 1 24 (24)
I0216 01:28:32.709008 32696 net.cpp:156] Memory required for data: 249003360
I0216 01:28:32.709012 32696 layer_factory.hpp:77] Creating layer pool6_mbox_loc_flat
I0216 01:28:32.709022 32696 net.cpp:91] Creating Layer pool6_mbox_loc_flat
I0216 01:28:32.709029 32696 net.cpp:425] pool6_mbox_loc_flat <- pool6_mbox_loc_perm
I0216 01:28:32.709038 32696 net.cpp:399] pool6_mbox_loc_flat -> pool6_mbox_loc_flat
I0216 01:28:32.709067 32696 net.cpp:141] Setting up pool6_mbox_loc_flat
I0216 01:28:32.709074 32696 net.cpp:148] Top shape: 1 24 (24)
I0216 01:28:32.709079 32696 net.cpp:156] Memory required for data: 249003456
I0216 01:28:32.709084 32696 layer_factory.hpp:77] Creating layer pool6_mbox_conf
I0216 01:28:32.709095 32696 net.cpp:91] Creating Layer pool6_mbox_conf
I0216 01:28:32.709100 32696 net.cpp:425] pool6_mbox_conf <- pool6_pool6_0_split_1
I0216 01:28:32.709110 32696 net.cpp:399] pool6_mbox_conf -> pool6_mbox_conf
I0216 01:28:32.709733 32696 net.cpp:141] Setting up pool6_mbox_conf
I0216 01:28:32.709741 32696 net.cpp:148] Top shape: 1 24 1 1 (24)
I0216 01:28:32.709745 32696 net.cpp:156] Memory required for data: 249003552
I0216 01:28:32.709755 32696 layer_factory.hpp:77] Creating layer pool6_mbox_conf_perm
I0216 01:28:32.709771 32696 net.cpp:91] Creating Layer pool6_mbox_conf_perm
I0216 01:28:32.709777 32696 net.cpp:425] pool6_mbox_conf_perm <- pool6_mbox_conf
I0216 01:28:32.709785 32696 net.cpp:399] pool6_mbox_conf_perm -> pool6_mbox_conf_perm
I0216 01:28:32.709893 32696 net.cpp:141] Setting up pool6_mbox_conf_perm
I0216 01:28:32.709900 32696 net.cpp:148] Top shape: 1 1 1 24 (24)
I0216 01:28:32.709904 32696 net.cpp:156] Memory required for data: 249003648
I0216 01:28:32.709908 32696 layer_factory.hpp:77] Creating layer pool6_mbox_conf_flat
I0216 01:28:32.709918 32696 net.cpp:91] Creating Layer pool6_mbox_conf_flat
I0216 01:28:32.709923 32696 net.cpp:425] pool6_mbox_conf_flat <- pool6_mbox_conf_perm
I0216 01:28:32.709931 32696 net.cpp:399] pool6_mbox_conf_flat -> pool6_mbox_conf_flat
I0216 01:28:32.709972 32696 net.cpp:141] Setting up pool6_mbox_conf_flat
I0216 01:28:32.709980 32696 net.cpp:148] Top shape: 1 24 (24)
I0216 01:28:32.709983 32696 net.cpp:156] Memory required for data: 249003744
I0216 01:28:32.709988 32696 layer_factory.hpp:77] Creating layer pool6_mbox_priorbox
I0216 01:28:32.709997 32696 net.cpp:91] Creating Layer pool6_mbox_priorbox
I0216 01:28:32.710005 32696 net.cpp:425] pool6_mbox_priorbox <- pool6_pool6_0_split_2
I0216 01:28:32.710011 32696 net.cpp:425] pool6_mbox_priorbox <- data_data_0_split_6
I0216 01:28:32.710019 32696 net.cpp:399] pool6_mbox_priorbox -> pool6_mbox_priorbox
I0216 01:28:32.710050 32696 net.cpp:141] Setting up pool6_mbox_priorbox
I0216 01:28:32.710058 32696 net.cpp:148] Top shape: 1 2 24 (48)
I0216 01:28:32.710062 32696 net.cpp:156] Memory required for data: 249003936
I0216 01:28:32.710067 32696 layer_factory.hpp:77] Creating layer mbox_loc
I0216 01:28:32.710078 32696 net.cpp:91] Creating Layer mbox_loc
I0216 01:28:32.710084 32696 net.cpp:425] mbox_loc <- conv4_3_norm_mbox_loc_flat
I0216 01:28:32.710091 32696 net.cpp:425] mbox_loc <- fc7_mbox_loc_flat
I0216 01:28:32.710099 32696 net.cpp:425] mbox_loc <- conv6_2_mbox_loc_flat
I0216 01:28:32.710108 32696 net.cpp:425] mbox_loc <- conv7_2_mbox_loc_flat
I0216 01:28:32.710115 32696 net.cpp:425] mbox_loc <- conv8_2_mbox_loc_flat
I0216 01:28:32.710121 32696 net.cpp:425] mbox_loc <- pool6_mbox_loc_flat
I0216 01:28:32.710130 32696 net.cpp:399] mbox_loc -> mbox_loc
I0216 01:28:32.710163 32696 net.cpp:141] Setting up mbox_loc
I0216 01:28:32.710171 32696 net.cpp:148] Top shape: 1 29484 (29484)
I0216 01:28:32.710175 32696 net.cpp:156] Memory required for data: 249121872
I0216 01:28:32.710180 32696 layer_factory.hpp:77] Creating layer mbox_conf
I0216 01:28:32.710188 32696 net.cpp:91] Creating Layer mbox_conf
I0216 01:28:32.710196 32696 net.cpp:425] mbox_conf <- conv4_3_norm_mbox_conf_flat
I0216 01:28:32.710202 32696 net.cpp:425] mbox_conf <- fc7_mbox_conf_flat
I0216 01:28:32.710209 32696 net.cpp:425] mbox_conf <- conv6_2_mbox_conf_flat
I0216 01:28:32.710217 32696 net.cpp:425] mbox_conf <- conv7_2_mbox_conf_flat
I0216 01:28:32.710224 32696 net.cpp:425] mbox_conf <- conv8_2_mbox_conf_flat
I0216 01:28:32.710229 32696 net.cpp:425] mbox_conf <- pool6_mbox_conf_flat
I0216 01:28:32.710238 32696 net.cpp:399] mbox_conf -> mbox_conf
I0216 01:28:32.710268 32696 net.cpp:141] Setting up mbox_conf
I0216 01:28:32.710274 32696 net.cpp:148] Top shape: 1 29484 (29484)
I0216 01:28:32.710278 32696 net.cpp:156] Memory required for data: 249239808
I0216 01:28:32.710283 32696 layer_factory.hpp:77] Creating layer mbox_priorbox
I0216 01:28:32.710290 32696 net.cpp:91] Creating Layer mbox_priorbox
I0216 01:28:32.710297 32696 net.cpp:425] mbox_priorbox <- conv4_3_norm_mbox_priorbox
I0216 01:28:32.710304 32696 net.cpp:425] mbox_priorbox <- fc7_mbox_priorbox
I0216 01:28:32.710310 32696 net.cpp:425] mbox_priorbox <- conv6_2_mbox_priorbox
I0216 01:28:32.710316 32696 net.cpp:425] mbox_priorbox <- conv7_2_mbox_priorbox
I0216 01:28:32.710324 32696 net.cpp:425] mbox_priorbox <- conv8_2_mbox_priorbox
I0216 01:28:32.710328 32696 net.cpp:425] mbox_priorbox <- pool6_mbox_priorbox
I0216 01:28:32.710336 32696 net.cpp:399] mbox_priorbox -> mbox_priorbox
I0216 01:28:32.710366 32696 net.cpp:141] Setting up mbox_priorbox
I0216 01:28:32.710373 32696 net.cpp:148] Top shape: 1 2 29484 (58968)
I0216 01:28:32.710377 32696 net.cpp:156] Memory required for data: 249475680
I0216 01:28:32.710381 32696 layer_factory.hpp:77] Creating layer mbox_conf_reshape
I0216 01:28:32.710392 32696 net.cpp:91] Creating Layer mbox_conf_reshape
I0216 01:28:32.710398 32696 net.cpp:425] mbox_conf_reshape <- mbox_conf
I0216 01:28:32.710407 32696 net.cpp:399] mbox_conf_reshape -> mbox_conf_reshape
I0216 01:28:32.710448 32696 net.cpp:141] Setting up mbox_conf_reshape
I0216 01:28:32.710455 32696 net.cpp:148] Top shape: 1 7371 4 (29484)
I0216 01:28:32.710461 32696 net.cpp:156] Memory required for data: 249593616
I0216 01:28:32.710465 32696 layer_factory.hpp:77] Creating layer mbox_conf_softmax
I0216 01:28:32.710485 32696 net.cpp:91] Creating Layer mbox_conf_softmax
I0216 01:28:32.710490 32696 net.cpp:425] mbox_conf_softmax <- mbox_conf_reshape
I0216 01:28:32.710500 32696 net.cpp:399] mbox_conf_softmax -> mbox_conf_softmax
I0216 01:28:32.710573 32696 net.cpp:141] Setting up mbox_conf_softmax
I0216 01:28:32.710582 32696 net.cpp:148] Top shape: 1 7371 4 (29484)
I0216 01:28:32.710585 32696 net.cpp:156] Memory required for data: 249711552
I0216 01:28:32.710592 32696 layer_factory.hpp:77] Creating layer mbox_conf_flatten
I0216 01:28:32.710600 32696 net.cpp:91] Creating Layer mbox_conf_flatten
I0216 01:28:32.710607 32696 net.cpp:425] mbox_conf_flatten <- mbox_conf_softmax
I0216 01:28:32.710614 32696 net.cpp:399] mbox_conf_flatten -> mbox_conf_flatten
I0216 01:28:32.710655 32696 net.cpp:141] Setting up mbox_conf_flatten
I0216 01:28:32.710664 32696 net.cpp:148] Top shape: 1 29484 (29484)
I0216 01:28:32.710666 32696 net.cpp:156] Memory required for data: 249829488
I0216 01:28:32.710671 32696 layer_factory.hpp:77] Creating layer detection_out
I0216 01:28:32.710690 32696 net.cpp:91] Creating Layer detection_out
I0216 01:28:32.710695 32696 net.cpp:425] detection_out <- mbox_loc
I0216 01:28:32.710701 32696 net.cpp:425] detection_out <- mbox_conf_flatten
I0216 01:28:32.710706 32696 net.cpp:425] detection_out <- mbox_priorbox
I0216 01:28:32.710718 32696 net.cpp:399] detection_out -> detection_out
I0216 01:28:32.723644 32696 net.cpp:141] Setting up detection_out
I0216 01:28:32.723690 32696 net.cpp:148] Top shape: 1 1 1 7 (7)
I0216 01:28:32.723695 32696 net.cpp:156] Memory required for data: 249829516
I0216 01:28:32.723711 32696 layer_factory.hpp:77] Creating layer detection_eval
I0216 01:28:32.723742 32696 net.cpp:91] Creating Layer detection_eval
I0216 01:28:32.723752 32696 net.cpp:425] detection_eval <- detection_out
I0216 01:28:32.723763 32696 net.cpp:425] detection_eval <- label
I0216 01:28:32.723778 32696 net.cpp:399] detection_eval -> detection_eval
I0216 01:28:32.727552 32696 net.cpp:141] Setting up detection_eval
I0216 01:28:32.727568 32696 net.cpp:148] Top shape: 1 1 4 5 (20)
I0216 01:28:32.727591 32696 net.cpp:156] Memory required for data: 249829596
I0216 01:28:32.727598 32696 net.cpp:219] detection_eval does not need backward computation.
I0216 01:28:32.727608 32696 net.cpp:219] detection_out does not need backward computation.
I0216 01:28:32.727635 32696 net.cpp:219] mbox_conf_flatten does not need backward computation.
I0216 01:28:32.727643 32696 net.cpp:219] mbox_conf_softmax does not need backward computation.
…
